RL_2/dqn_tower.onnx (onnx, 199999 bytes, 6 tensors)

layers.0.weight f4 [128, 254]
000000 b9 c4 25 3c 9d e8 cb bd df 62 8e ba 7a 7b a0 bd
       0.010117703 -0.09956477 -0.0010863206 -0.07836051
000010 53 99 a2 bd 98 1a 34 3d 92 9f 3f 3e 87 3f 51 3e
       -0.079394005 0.043970674 0.18713215 0.2043439
000020 4f d6 9d bd ee 8b f0 bd 0a 27 ea 81 9a 78 a2 3d
       -0.07706892 -0.117454395 -8.601404e-38 0.07933159
000030 dc 14 89 be f0 89 6c be 31 d6 18 bd f6 a5 84 82
       -0.26773727 -0.23099494 -0.037313644 -1.9490914e-37
000040 3d dd 8c 3b ef 2b bb 81 08 87 13 3c 95 8d 1b be
       0.0042988346 -6.875599e-38 0.009004362 -0.15190728
000050 0f 37 df bd 8d d4 d1 bb 46 32 a7 01 08 60 49 bc
       -0.108991735 -0.006403512 6.141825e-38 -0.012290962
000060 2a 7d 6f 01 e9 0f 0b bd 6d f4 36 be 23 70 e4 bd
       4.3987168e-38 -0.03395072 -0.17866679 -0.11154201
000070 7c 96 2d 3d 34 cf 06 82 01 d3 45 bd 80 8b 83 bd
       0.04237984 -9.90423e-38 -0.048296932 -0.06423092
000080 a5 20 89 bd 99 f4 2f 3d 3b 5d b4 3c ee 3b c7 3c
       -0.066956796 0.042957876 0.022017112 0.024320569
000090 85 9d 53 bc 76 a6 68 bd 6d 15 10 3d a3 3d fc 3c
       -0.012915974 -0.056799375 0.035176683 0.03079111
0000a0 c9 d7 0c bd 5b c4 a8 3d 92 f6 d1 bd 79 3b d9 3b
       -0.034385476 0.08240577 -0.10252108 0.006629404
0000b0 63 5b 14 3e f5 e4 43 bd be 7f aa bb 48 07 87 bc
       0.14487986 -0.047825772 -0.0052032163 -0.016482964
0000c0 c1 41 d8 bd 07 86 48 3d fe 43 f9 bc b8 51 be 3d
       -0.105594166 0.048955943 -0.030427929 0.0929293
0000d0 5e c2 b4 3d b5 6a 65 bd 36 d9 64 bd 4e 5e 50 bc
       0.08826135 -0.056009967 -0.05587121 -0.0127177965
0000e0 88 8a 04 3d c1 d6 8a bc fd 4e 1c bd 5f 1e 50 3d
       0.032358676 -0.016948106 -0.038161267 0.050810214
0000f0 af 05 80 bd d3 88 0c 3d 3b 57 00 3e 7e 30 a5 bc
       -0.06251084 0.034310173 0.12533276 -0.020164724
000100 70 96 72 3c 3f 59 3d 3d 65 7c de 3b cd 6a 69 bd
       0.014806375 0.04622769 0.0067897313 -0.05698662
000110 3c 56 a0 3c d6 4d 65 3d d8 ee 1b 3d 2d 66 f1 bd
       0.01957237 0.055982433 0.038069576 -0.117870666
000120 39 a7 02 3d 36 e8 49 3d 09 16 a1 3d f8 35 f4 bc
       0.031897757 0.04929372 0.07865531 -0.02981089
000130 8c ce 84 3b fa c7 31 3d 1f 86 b8 bc a8 39 d1 bc
       0.0040529426 0.043403603 -0.022524891 -0.025540188
000140 88 69 5e 3d 7e 79 92 bc ba f1 46 3a 1e dd a7 bd
       0.05429986 -0.017880198 0.00075891207 -0.08196472
000150 b0 d5 18 bd 2f 3b 1c bd 73 f8 15 bc 73 1f 29 3c
       -0.037313163 -0.03814238 -0.009153473 0.0103224395
000160 74 fb ee 3d e7 32 0c bd a0 7f 01 bc df 20 78 bc
       0.116690546 -0.03422823 -0.007903963 -0.015144556
000170 b7 61 ed 3b 34 3a fb 3c 96 24 01 3d 35 b6 cf bc
       0.0072443145 0.030667402 0.03152903 -0.025355438
000180 d1 41 10 3d 9d ba a8 bd b9 9e b2 bd c5 ab 15 bd
       0.035219017 -0.08238719 -0.0872168 -0.036540765
000190 01 9f 59 bb c3 5a 00 be bc 60 b2 bd 50 2a 00 bd
       -0.0033206346 -0.12534623 -0.08709857 -0.031290352
0001a0 f6 eb f1 bc 8f 61 16 bd cb f6 02 3d 60 2c ef 3c
       -0.02953146 -0.036714133 0.03197364 0.029195964
0001b0 76 58 cb 3c 88 3e 88 b9 a1 7b fa bb 45 bf a8 bc
       0.024822455 -0.0002598653 -0.0076441322 -0.020599017
0001c0 86 10 ad bb f0 48 19 3d 55 c6 b5 bd a7 0d 04 be
       -0.0052815108 0.037423074 -0.088757195 -0.12895833
0001d0 8c 95 39 bd 13 bc 11 bc c2 ef 26 3e 46 ef 3b 3d
       -0.045308635 -0.008894938 0.16302398 0.045882486
0001e0 51 ee b0 3b c0 f0 d5 bd 62 e8 c5 bc 80 cb 15 3c
       0.0053995033 -0.1044631 -0.02415866 0.009142756
0001f0 4b 42 86 bd 86 e9 2c 3c 33 b3 be bd 92 ab 34 be
       -0.06555613 0.010553723 -0.09311523 -0.17643574
000200 23 8b dc bd e1 fa 9b bd 05 6b 30 3d 8f 1e bc 3c
       -0.10768726 -0.07616211 0.04307081 0.02296379
000210 22 07 69 3d 38 a0 ff 3d f2 90 0a 3e 30 83 9c 3d
       0.056891568 0.12481731 0.13531855 0.076422095
000220 e7 81 15 be 13 ca 5a 3d ec bf 25 bd e8 9f b9 3c
       -0.14600335 0.05341537 -0.040466234 0.022659257
000230 ee 8b f9 bd 54 79 f8 be fb bd 17 3d 3a 7f ae bc
       -0.121848926 -0.48530066 0.037046414 -0.0213009
000240 35 07 b1 3d e6 7c 96 3d 1d 20 a4 bd 55 1c f7 bb
       0.08643953 0.07348041 -0.080139376 -0.0075412192
000250 e4 c8 b8 3d e2 d9 92 3d 9d 49 94 bc 92 74 8b bd
       0.09022692 0.07170464 -0.018101508 -0.068093434
000260 e8 04 c6 bd af d7 85 bd cf e4 5f be 34 12 db be
       -0.096689045 -0.06535279 -0.21864627 -0.42787325
000270 20 7b 40 3e 9d 97 d7 bb 33 2b be bc fb 4e ed bc
       0.18796968 -0.006579353 -0.023213958 -0.028968325
000280 1a 77 a9 3c e5 ca a4 bd c0 38 08 bd 71 5b f6 3b
       0.020686675 -0.080465116 -0.033257246 0.007518225
000290 19 06 98 3d db 25 83 bd e5 e6 a1 bd de af ef bd
       0.07423038 -0.06403705 -0.07905368 -0.11703466
0002a0 fa 86 f0 bd 76 e4 9c be dc 7a b2 be 35 f5 ee 3d
       -0.11744495 -0.30643052 -0.3485936 0.11667863
0002b0 6b 63 db bd 92 98 99 bd 37 ae 10 bd a0 16 47 3d
       -0.10712322 -0.074998036 -0.035322394 0.04860556
0002c0 7c 2f 99 bd 54 00 27 3e ba 34 88 3d 55 d2 64 be
       -0.0747976 0.16308719 0.06650682 -0.2234586
0002d0 e9 de c6 bd 4c 8b fa bd 19 3a 04 be b5 03 43 be
       -0.097104855 -0.122336 -0.12912787 -0.19044383
0002e0 3c 63 75 be dd 37 84 be e2 26 87 3d e2 f8 32 bd
       -0.23963636 -0.2582387 0.06599213 -0.043694384
0002f0 e4 be a2 3d ae 83 87 bd a1 91 70 bd e5 fe 9f 3d
       0.07946566 -0.06616913 -0.058732633 0.07812289
000300 72 e0 05 3d f3 e7 7a bd 58 95 8f bd f9 e2 e3 3c
       0.03268475 -0.06125636 -0.07010907 0.02781819
000310 de 3e 7f 3b f7 e5 71 bd 9b 56 d2 bd fa 22 d7 bd
       0.0038947384 -0.059057202 -0.10270425 -0.10504718
000320 cb 58 68 bd bd 92 76 bd 31 10 25 3d 17 cc 7e bc
       -0.056725305 -0.060198534 0.040298644 -0.0155515885
000330 b1 e8 9c bc ef ee 61 bc f3 60 fa 3b f6 04 bc bc
       -0.019153925 -0.013789876 0.007640952 -0.022951584
000340 22 a4 00 3e af d3 bf bc 5d e3 48 3d 94 2a 82 bd
       0.12562612 -0.023416368 0.049044956 -0.063557774
000350 fd 7d 29 3d 2e 91 2b 3c 9b fb f1 b9 90 5c af bd
       0.041379917 0.010471625 -0.00046154563 -0.08562577
000360 90 97 83 3c 29 cc b8 bd 05 10 de bd 80 e1 e0 ba
       0.016063482 -0.090233155 -0.10842899 -0.0017157048
000370 86 99 66 bd b7 ac 5b 3d 4f 7b 64 3c d8 9b a6 bd
       -0.056298755 0.05363151 0.013945415 -0.081351936
000380 94 73 89 bc 86 6c 40 3e d9 11 53 bd ef fb 8a 3d
       -0.016778745 0.18791398 -0.051530693 0.06786334
000390 4a 5a 05 3e 34 c5 81 bd a1 6d 8d bc 34 28 6d 3d
       0.13022724 -0.06336442 -0.01726419 0.05789967
0003a0 03 e0 1f 3d 28 cd 3e 3e b3 55 34 bc 52 66 e3 3d
       0.039031994 0.18632948 -0.01100676 0.111035004
0003b0 0a 9e e3 bd a4 0c a4 3d 6c 78 77 3d 51 bc f3 bd
       -0.11114128 0.080102235 0.060417578 -0.11901153
0003c0 8c 45 26 3e 50 d7 81 bc 09 a0 d1 3c fa 0f a9 bc
       0.16237468 -0.01584974 0.025589006 -0.020637501
0003d0 5b 24 28 bd 99 fd 36 3d 6a 3b 76 3d 3b 45 f3 3d
       -0.041050296 0.044675443 0.060115255 0.11878439
0003e0 0d 6c 55 3d a6 ab fd 3c ec b1 55 3e 30 aa 39 3d
       0.052105 0.030965637 0.20868653 0.04532832
0003f0 9a e8 49 3c d4 a0 09 3e c3 29 75 be 5f 91 91 bc
       0.012323523 0.13440257 -0.23941712 -0.017769514

layers.0.bias f4 [128]
000000 69 09 c8 3c 5c ee 92 bd 7f ef 11 bd 80 7d c0 82
       0.02441855 -0.0717437 -0.035628792 -2.8283898e-37
000010 1c 60 72 bd 18 3a ce 82 54 e9 a5 bd 2d 8f 16 bd
       -0.05917369 -3.0302324e-37 -0.081011444 -0.036757637
000020 66 cf ff bc 53 aa 38 bd 0b ee c3 bc 4e 79 0c bd
       -0.031226825 -0.04508431 -0.023917219 -0.034295373
000030 50 ce 2d 82 b7 b6 71 3c 16 31 a4 bd 56 ba 8f 82
       -1.2769241e-37 0.014753035 -0.08017175 -2.1118913e-37
000040 b6 a7 15 bc b9 ed 04 3d 66 60 9d bc 6b dc 11 bc
       -0.009134224 0.032453272 -0.019211005 -0.008902649
000050 9c 8d ac bc 0b c3 8e 3d 33 34 f3 bc 93 8f 30 bd
       -0.021063618 0.06970795 -0.029687976 -0.043105673
000060 4c c3 24 bc 42 1c 5d bd 72 c8 a9 bd bd ca b3 bc
       -0.010056328 -0.053982027 -0.08290185 -0.02194726
000070 24 b4 7b 3c 9e 92 1b 3d 46 34 73 bd b5 0f 5b bc
       0.015362773 0.037981622 -0.059376024 -0.013370444
000080 01 37 e4 bc cd 8f 15 bd fe 13 3e bd f1 9f 4e bd
       -0.02785826 -0.036514092 -0.046405785 -0.0504455
000090 9d a9 8d bd 81 b2 67 bd 99 f5 9a 3d 56 40 a9 bd
       -0.06917117 -0.05656672 0.07566375 -0.08264224
0000a0 ca 19 56 bd 8f 61 1d 3d 1d 4a 81 bd bb e4 64 bc
       -0.052270688 0.038423117 -0.06312964 -0.013970549
0000b0 ae 22 29 bd 50 4d da bc 67 9e bb 82 00 66 fe 3c
       -0.04129284 -0.026648194 -2.75681e-37 0.031054497
0000c0 e9 47 58 82 c9 38 42 bd 49 a6 ad 3c 6d 0f 8f bd
       -1.5889811e-37 -0.047417436 0.021197455 -0.06985364
0000d0 a2 eb cc 02 81 f5 5c bd 5b 03 43 3d 0b eb 4a bd
       3.0110353e-37 -0.05394507 0.047610622 -0.04954056
0000e0 39 3c e7 bc 6f e6 c7 bd ff 3c 76 bd 66 3b 6b 3c
       -0.028226959 -0.097607486 -0.060116764 0.014357423
0000f0 12 10 d6 bd a8 ac 5d 3c 3b e7 88 82 e4 f3 c6 bc
       -0.10452284 0.013529934 -2.0116124e-37 -0.024286218
000100 de ab b1 3c 1d 19 42 bd d3 e0 af 82 f4 af c4 bb
       0.021688398 -0.04738723 -2.5842982e-37 -0.0060024206
000110 a9 4d 6e bd 92 d7 73 3c 86 08 94 bd f9 eb 25 bd
       -0.05817953 0.014882939 -0.07228188 -0.040508244
000120 1c ea bb bd 19 a2 cb 82 e7 4f b4 3b 35 be 1f bd
       -0.09175512 -2.9921209e-37 0.005502689 -0.038999755
000130 cf b7 21 bd db 1d 90 bd cc 18 b3 82 d9 30 3d 3d
       -0.039481934 -0.070369445 -2.6315919e-37 0.046189163
000140 48 ab 5d bd 0f 9f 00 3d 97 13 30 bd 1b 0e 08 3d
       -0.054118425 0.03140169 -0.042987432 0.033216577
000150 4f 6a 46 bc 8c 94 fa bc 52 08 dc 82 f3 fc 16 bd
       -0.012110307 -0.03058841 -3.233087e-37 -0.036862325
000160 aa f7 a2 3c f1 75 c2 3c d3 18 af 3c 97 76 72 bd
       0.019893486 0.02373788 0.021374142 -0.059195127
000170 e5 ef 0d 83 7b c7 bb bc 3b 42 13 3d 57 47 91 3c
       -4.171156e-37 -0.022922268 0.035951834 0.017734213
000180 e6 95 9f 3c 92 cc 1f 3d ec 15 43 3c 89 90 b8 bd
       0.019480657 0.039013453 0.011907082 -0.09011943
000190 dd 18 ae bd e1 26 88 3c f3 44 c7 3b 94 4b 20 bc
       -0.08500836 0.016620101 0.0060812174 -0.009783644
0001a0 b4 32 2a bd 0b 20 82 bb 05 46 97 82 7b c4 41 3d
       -0.04155226 -0.003971105 -2.2227645e-37 0.04730652
0001b0 45 08 ef bc 7f e6 1c bd 4b 5d a6 bd d3 1d ae bc
       -0.029178748 -0.038305756 -0.08123263 -0.021254456
0001c0 2f 69 9e bd d3 9e 8c bd 1b c6 99 bd 85 83 bc 3c
       -0.07734906 -0.06866231 -0.07508489 0.023011932
0001d0 7b 6a 1d 3d 82 c6 ad 82 b1 8e e8 bc 7c c0 83 82
       0.038431626 -2.5534003e-37 -0.028388353 -1.93592e-37
0001e0 44 30 d6 bd 76 85 93 bc 37 ab 90 bb 87 0a fa 3c
       -0.10458425 -0.018007975 -0.0044149416 0.030522598
0001f0 12 54 aa bd de 8b 12 83 28 29 46 bd aa f9 0b bd
       -0.083168164 -4.3066103e-37 -0.048379093 -0.034173645

layers.1.weight f4 [128, 128]
000000 b9 84 17 3e 17 88 e6 3d fa 57 1b be cf bc a7 82
       0.14796723 0.11256426 -0.15170279 -2.4646815e-37
000010 65 62 2c bd 9e c3 83 81 a9 44 ca 3c 54 95 29 3d
       -0.042086024 -4.8402497e-38 0.024690943 0.041402176
000020 bf 56 92 be 29 2b d1 bc 38 6e 1b 3d de 38 3d be
       -0.28581807 -0.025533276 0.03794691 -0.18478724
000030 f2 f6 90 82 c9 d3 fe 3d ce d1 98 bd 4f 61 c7 81
       -2.1300638e-37 0.124427386 -0.07461892 -7.3240686e-38
000040 06 38 2d 3c 80 d7 0c be c0 8d 6c be 1a 59 fb bc
       0.010572439 -0.13754082 -0.23100948 -0.030682135
000050 18 6f 0e 3d 56 f8 02 be eb 5d db bd d6 eb 53 3e
       0.034773916 -0.12790045 -0.10711273 0.20695433
000060 fa 7f a0 bd 89 ae 49 bd 6e 97 b3 3d a7 0a 6d be
       -0.078369096 -0.049238715 0.08769117 -0.23148595
000070 40 ee e4 3d 43 f9 1b 3d 52 74 4e be 67 fc 14 bd
       0.11178255 0.03807951 -0.2016156 -0.036373522
000080 e0 e7 e4 ba 67 86 0e bd 72 2c 81 3d 26 87 72 3d
       -0.0017464124 -0.034796145 0.063073054 0.05921092
000090 da 8e 83 bd ba da ae 3e b7 2c b4 bc 36 8d 17 be
       -0.06423731 0.3415125 -0.021993978 -0.14799961
0000a0 65 f1 5e 3b 2a 2a b7 3c 1a 3d a0 3d f0 8f 89 3c
       0.0034018394 0.022358973 0.07824154 0.016792268
0000b0 1c b7 c1 3d 31 1b f9 3d b3 fd b7 02 8b 86 0b bd
       0.094587535 0.121633895 2.703505e-37 -0.034063857
0000c0 7f 27 60 02 7e c0 b4 bd 01 e5 27 3d 52 47 0f bc
       1.6468256e-37 -0.088257775 0.04098988 -0.008745031
0000d0 c2 62 69 02 41 cc 8d 3d 48 02 33 3e ae c1 40 3e
       1.7146479e-37 0.06923724 0.17481339 0.18823883
0000e0 06 88 ed 3d 83 b9 85 bd d0 50 28 be 24 40 bc bd
       0.1159821 -0.06529524 -0.16437078 -0.09191921
0000f0 47 2b 41 3e 07 c7 9c b9 7e e8 80 82 9a 09 65 3d
       0.18864165 -0.00029902926 -1.8941354e-37 0.05591736
000100 43 a5 2e 3d fb d7 33 be 7c 9b 82 02 ea 99 8c 3d
       0.042638075 -0.17562859 1.9191027e-37 0.06865294
000110 26 51 15 3e 2c 4f 92 bd 7f 5b a9 3d 75 59 a9 3d
       0.14581737 -0.07144007 0.082694046 0.08269016
000120 2f b7 bb 3d 95 67 b0 02 a9 3e 0c be b5 54 5d 3e
       0.09165799 2.592033e-37 -0.13695778 0.21614344
000130 46 b9 0f 3e 2b 57 46 3e b4 bf b4 02 86 d4 29 3d
       0.1403552 0.1936919 2.6558655e-37 0.041462444
000140 9e ec 31 3e 66 cb 79 bc d5 d3 00 3d 9f df 17 3e
       0.17375419 -0.015246248 0.03145202 0.14831398
000150 97 32 82 bd 54 4f 1a be 79 75 9d 02 1f 48 58 3d
       -0.063573055 -0.15069324 2.3136503e-37 0.052803155
000160 05 20 02 be 0f ef 0c be 60 df e2 bd a2 a1 19 3e
       -0.12707527 -0.13763069 -0.11077762 0.15003064
000170 5f bd c4 02 8c 30 d1 bd 66 ed 2b 3e c7 5e 03 be
       2.8908305e-37 -0.10214338 0.16789779 -0.12829123
000180 b4 0a a3 3d bb 0d e2 bd 1d 2a 2f be 12 fc a2 bc
       0.07961026 -0.11037775 -0.17105909 -0.019895587
000190 14 93 fe bd 4b c6 7a 3c b7 28 7f 3d 11 10 5c 3d
       -0.12430397 0.015306066 0.062294688 0.05372626
0001a0 97 d2 19 3e fc ee 5d 3e 7e ee ba 82 91 0c 56 3e
       0.1502174 0.21673197 -2.7467131e-37 0.20903231
0001b0 c5 fb f4 3c 3a e9 80 3d 59 7b 45 3e 2c 67 9e 3d
       0.02990521 0.062944844 0.19285335 0.07734522
0001c0 e4 76 0b 3e 09 8d 53 3c db 72 19 be f6 63 c1 be
       0.13619572 0.012912043 -0.1498522 -0.37771577
0001d0 6a 7f 50 bd d6 0c cf 82 0c 77 c2 3d 12 3c 5c 02
       -0.05090276 -3.0423284e-37 0.09495363 1.6180287e-37
0001e0 e6 ba 6e 3e 5e 4b a6 3b ca a4 e5 3c 4b 4b 3e 3c
       0.23313484 0.0050749024 0.02803268 0.011614631
0001f0 aa 02 76 3a 42 7e 10 83 02 ac 2f 3d c3 f9 cb ba
       0.0009384552 -4.2462733e-37 0.04288865 -0.0015562106
000200 4b 0c c5 bd c8 99 ef bd 8d 7a 0e be 64 c6 a3 82
       -0.09621485 -0.11699253 -0.13913937 -2.4064568e-37
000210 c2 d1 dd bd ab 46 7a 02 e1 8a 5c bd bf 77 b6 3b
       -0.10831024 1.838738e-37 -0.053843383 0.005568474
000220 b0 4b 47 bb fb 47 f0 bd 2b 61 d1 bd 9c 3e 43 3d
       -0.0030410103 -0.11732479 -0.102236114 0.04766713
000230 90 74 e6 00 36 fc b0 3d 58 dd 93 bd c4 ca a4 01
       2.1163979e-38 0.086418554 -0.07219952 6.053504e-38
000240 f4 ff 94 bd 1c c3 a4 bc 6e 88 35 3c f4 6a 05 3e
       -0.07275382 -0.020112567 0.011079891 0.1302908
000250 ad 42 38 3d 3f be b1 bd 99 8e ca 3d c2 12 c1 bd
       0.044985462 -0.08678865 0.098904796 -0.09427406
000260 c7 2d 27 3d f5 60 ae bd 7b 60 97 be 3d d9 0a 3e
       0.04081514 -0.08514587 -0.29565796 0.13559432
000270 4f c9 cb 3d 84 9c 36 3d f5 0a a0 bd 14 7e 51 bd
       0.09950506 0.04458286 -0.0781459 -0.051145628
000280 b4 33 5b 3b f2 eb a6 3c f7 56 62 bd 23 dc 90 bd
       0.0033447566 0.02037618 -0.055258717 -0.07073238
000290 b3 0e 8c bb 1a 2f ef 3d 98 cd 03 3c ee 25 e3 3c
       -0.004274213 0.11678906 0.008044623 0.027728047
0002a0 89 09 f7 bc 3c 7e e5 3d cf ca 8c bc a2 e4 10 3e
       -0.030155914 0.11205718 -0.01718655 0.14149716
0002b0 df 5c 65 bd b8 96 93 bb 26 d0 a5 02 f0 40 36 bd
       -0.055996772 -0.004504051 2.4364042e-37 -0.044495523
0002c0 18 ee 89 00 05 03 90 be 3f 51 ca 3d 4b 46 b0 bd
       1.2666875e-38 -0.28127304 0.09878778 -0.08607157
0002d0 97 6d ab 82 3f 27 12 be 1a f7 e4 3d 48 83 22 3b
       -2.5189093e-37 -0.14272784 0.111799434 0.0024797488
0002e0 94 ce b2 3d 1a d9 a0 b9 ef 76 9f bd 32 8e 06 3d
       0.08730808 -0.0003067933 -0.07786357 0.03285045
0002f0 25 7a 65 be 81 d8 dc bd 45 6b 13 82 aa 51 bd 3d
       -0.22409876 -0.10783482 -1.0830639e-37 0.09244092
000300 6d 48 14 3d 00 ca f4 3d ca 24 90 02 f0 84 fd 3d
       0.036201883 0.11952591 2.1180014e-37 0.123788714
000310 10 bd 59 be c6 ba 10 3e 16 2c b3 bd 54 16 f1 3d
       -0.21263528 0.14133748 -0.08748643 0.11771837
000320 c3 f3 31 3e 8b fb c2 02 45 b4 26 3e 60 36 6c 3e
       0.17378144 2.8650117e-37 0.16279705 0.23067617
000330 52 6a 42 bc c7 24 3d 3d c2 ef b6 02 d7 2a 79 be
       -0.011866169 0.04617765 2.688011e-37 -0.24332748
000340 d5 6b 22 be 36 98 4d 3d 05 28 5b be 39 44 76 3d
       -0.15861447 0.050193988 -0.21401985 0.060123656
000350 10 89 65 3d c8 b0 a4 bd 64 0f 7a 82 35 be db bd
       0.056038916 -0.08041531 -1.8371516e-37 -0.107296385
000360 c1 ab be 3b 9b 52 63 3c d3 db 90 3d 9e d5 43 be
       0.0058188145 0.013874675 0.07073178 -0.19124457
000370 c5 9d 00 02 e2 c5 e8 3d a4 df 7c 3d 15 ba 95 bd
       9.449232e-38 0.11365868 0.061736718 -0.07310883
000380 02 06 41 bc 93 2f b2 bc cb ec 5f 3e 9f 1b 8c 3d
       -0.0117812175 -0.0217512 0.21867673 0.06841206
000390 28 da 6b be cc 10 c0 3d a5 7c 6a 3d eb ea 08 bd
       -0.23032439 0.09378204 0.057247777 -0.03342716
0003a0 12 e6 ff 3c 3f 2d 12 be ce f2 ab 02 1d 6b c8 3d
       0.031237636 -0.14275073 2.5265555e-37 0.09786055
0003b0 78 e1 1d bc 5c ea ba 3c 31 14 e0 bb b7 da 82 39
       -0.0096362755 0.02281683 -0.0068383445 0.00024958487
0003c0 f8 aa 65 be 2a 03 74 be 80 c7 7f 3e 65 18 e6 3d
       -0.224285 -0.23829332 0.24978447 0.11235122
0003d0 01 23 d5 3d 1c 6d 8b 02 d6 24 85 bd 0c 21 74 02
       0.10407067 2.048684e-37 -0.065011665 1.7935773e-37
0003e0 52 29 86 bd af e7 7a 3c ea 51 bf bd 95 3d 92 bd
       -0.0655085 0.015314027 -0.09341796 -0.07140652
0003f0 ee 40 3e 3b 45 1e 9f 02 0f 0e 64 bd cb 05 09 3d
       0.00290304 2.3380324e-37 -0.05567747 0.03345279

layers.1.bias f4 [128]
000000 fd 37 5e bd 4b d2 d8 3d 3f 8d 02 3e ef b3 ab bd
       -0.054252613 0.10586985 0.12749194 -0.08383929
000010 e1 18 a8 3e 5e 26 3c 3e 93 04 6e 3e 4a 2c 82 3e
       0.3283148 0.18374011 0.23243932 0.25424415
000020 4f 64 ea 3d 17 a6 22 3e 96 1e 12 3e 05 93 76 3e
       0.114449136 0.15883671 0.1426948 0.24079521
000030 0d c6 9b 3c 42 15 38 3e 46 35 7a bc 9a f5 3c bd
       0.019015336 0.17976859 -0.01527149 -0.04613266
000040 be 6d 3d 3e 7e bc 91 bc 33 5a a3 ba a5 56 ca 3d
       0.18498895 -0.017790075 -0.0012462795 0.098798074
000050 bf 9b d3 3d e5 98 35 3e 8a 56 f7 bc 7e b5 4a 3e
       0.103324406 0.17734106 -0.030192632 0.19795796
000060 02 b0 d3 bc 50 b2 ac bd 10 fe 20 3e 67 d1 85 bd
       -0.025840763 -0.08432448 0.15721917 -0.06534081
000070 a3 f0 0c 3e b4 77 4f 3e 6d 1e d2 3d 56 ca 4b bd
       0.1376367 0.20260507 0.102597095 -0.04975351
000080 87 c4 3f bd 42 5f ab 3d 08 47 bb bc 76 ee 76 3e
       -0.046818282 0.08367778 -0.022861019 0.24114403
000090 fc 98 a2 3d 4c ca bd 3e c2 90 33 3e 32 a8 12 3d
       0.07939336 0.37068403 0.1753569 0.035804935
0000a0 d9 6e 0d 3e ef dd 9e 3e dd e3 1f 3e b4 94 4e 3d
       0.13811816 0.31028697 0.15614267 0.050434783
0000b0 a9 bd 9c 3d 84 e0 2a 3e 36 2e 2b 3e 24 f3 dc 3c
       0.07653362 0.16687208 0.16716847 0.026971407
0000c0 6c 40 b4 3d 5c ee a3 3d 67 4f 35 bd c4 87 3d 3e
       0.0880135 0.08004448 -0.044265177 0.18508822
0000d0 2d 20 70 3e c9 73 72 3d b3 bc 66 3e e6 f0 af ba
       0.23449774 0.059192453 0.2253292 -0.0013423234
0000e0 86 de 1c 3e 99 02 b7 3e a8 fe 99 bd f8 d6 62 3e
       0.15319261 0.3574417 -0.07519275 0.22152317
0000f0 be b6 45 bd 3f 12 3c bc 02 99 6f 3e 9e 02 38 3e
       -0.04826998 -0.01147896 0.23398212 0.17969748
000100 1a 73 a4 ba 12 63 24 3e 09 57 f7 3c 46 a9 60 3d
       -0.001254651 0.16053417 0.030192869 0.05484893
000110 74 95 e3 3d c1 41 13 3e a7 ac 98 3b 65 f8 ba 3e
       0.1111249 0.14380552 0.0046592536 0.36517635
000120 7a b4 18 3e 87 d2 15 3e 53 61 b9 bc b9 44 32 3c
       0.14912596 0.14631091 -0.022629416 0.010880643
000130 ef bb 88 3e da 62 3e 3d bc b1 27 be 12 dd f0 3c
       0.26705882 0.04648099 -0.16376394 0.02940229
000140 a8 a8 60 3e 80 3b 2c 3e 92 e2 b4 3d 85 6b 2b 3e
       0.21939337 0.16819572 0.08832277 0.16740234
000150 3a 22 a3 3c 2f 5a ba 3d 2a c0 10 3e 79 f5 7c 3e
       0.019913781 0.090992324 0.14135805 0.24703015
000160 42 4a 6b 3d 26 bb 9d 3d 46 04 6f 3e 20 13 ad 3e
       0.057443865 0.07701711 0.23341474 0.33803654
000170 ba 3c 02 3e a3 d8 12 3e b0 0c b1 bc bf 72 5d 3e
       0.12718478 0.14340453 -0.021612495 0.21625803
000180 20 58 68 bd fa 16 46 3e cd 2b 82 3e 07 f4 86 3e
       -0.056724668 0.19344702 0.25424042 0.26358053
000190 dd bf 0b bd 20 ce a9 bc a0 f0 4b 3e 66 5f 05 3e
       -0.034118522 -0.02072817 0.1991601 0.13024673
0001a0 66 9f e3 bd 1d 41 6e 3e 60 47 70 3e 78 bc 4a bd
       -0.11114387 0.23267026 0.23464727 -0.049496144
0001b0 9f 5e d3 3d e2 89 34 3e ee 62 4a 3e 87 9f 8f 3c
       0.10320782 0.17630723 0.19764301 0.017532123
0001c0 a4 0d ee bd 96 41 3a 3e 0f c7 ae bd 8b 4c 3a 3e
       -0.116236955 0.18189082 -0.08534061 0.18193261
0001d0 e6 9e 7d 3e bf 0f 7a 3e 55 60 24 bd 97 39 71 3e
       0.24767646 0.24420069 -0.040130932 0.23557125
0001e0 1c 11 12 3e 22 3b 1d 3e 54 48 88 3d 08 a2 2c 3e
       0.14264339 0.15354589 0.066544205 0.16858685
0001f0 d6 70 66 3e 6e a1 f0 3c 1f d1 94 be f9 81 16 3d
       0.22503981 0.02937385 -0.29065797 0.036745045

layers.2.weight f4 [5, 128]
000000 0b a8 50 3d 94 72 54 3e 1d 48 05 be a2 e2 f6 bc
       0.05094151 0.20746833 -0.1301579 -0.030137364
000010 d8 05 13 be e3 b4 a1 bd 9c 31 fc 3d 37 86 a1 bd
       -0.14357698 -0.078958295 0.1231415 -0.078869276
000020 4d f9 ac 3c 55 8f 49 be 15 e8 88 3d 69 6c 57 be
       0.02111497 -0.19683583 0.06684891 -0.21037449
000030 52 02 30 3e 46 ed 98 3d b6 2d a0 3e 3f 5d 6d 3e
       0.17188385 0.07467131 0.31284875 0.23180102
000040 83 68 2a be 9d 9f 83 3e 23 3b 39 bd 90 03 89 bd
       -0.1664143 0.25707713 -0.045222413 -0.066901326
000050 96 75 db bd d6 2b 24 3e 8c 08 97 bd eb 83 4e 3e
       -0.10715787 0.16032347 -0.07374677 0.2016751
000060 91 3e 7e 3d 90 5e 27 3e 85 23 72 3d b9 04 29 be
       0.062071387 0.16344666 0.059115905 -0.16505708
000070 62 b4 45 bd 09 d3 41 3e fe 8f 78 3e 9f cc 42 ba
       -0.04826773 0.1892816 0.24273679 -0.00074310036
000080 ae 0d 0b 3c 38 02 7f bc e8 50 a1 be a7 4a 07 3e
       0.008487148 -0.015564494 -0.3150704 0.13212071
000090 1d 86 d5 be cc 38 2a 3d 15 4a d2 bd 90 ad a8 3d
       -0.41703883 0.041558072 -0.10268036 0.082362294
0000a0 a8 18 8a 3e 87 6b b0 3d 57 6a 2b 3e e0 32 eb 3d
       0.26971936 0.08614259 0.16739784 0.11484313
0000b0 ca cf 5d bc e5 45 86 bd e7 e2 9f 3d 7d 1d 01 3e
       -0.01353831 -0.065563 0.0780695 0.12608905
0000c0 4c 6d 74 3e bc 0a 6b bb 29 b4 75 3c 83 a2 87 bd
       0.23869818 -0.0035864552 0.014996567 -0.066227935
0000d0 4b 64 a2 bd 08 c5 46 be 74 ee 29 3e c3 e3 5e 3e
       -0.079292856 -0.19411099 0.16594869 0.21766572
0000e0 05 2e f2 3d 50 ab 2e be de f2 be 3d 23 d2 29 3e
       0.11825184 -0.17057538 0.09323667 0.16584067
0000f0 e6 3e 39 3e bf 3d 3d be f7 a7 ff 3d f5 8c 2e bd
       0.180904 -0.18480586 0.124832086 -0.042614896
000100 57 5f cf be dd 6b 62 be 28 d7 34 be f6 ea 4f 3e
       -0.40502426 -0.22111459 -0.176602 0.20304474
000110 2b 4d af bd cf 20 ea 3d 5a e6 64 3e a8 04 97 be
       -0.085596405 0.11432039 0.22353497 -0.2949574
000120 90 ee 2a 3e 10 a7 5b 3e d0 ad de 3d 2e 87 30 3e
       0.16692567 0.21450448 0.10872996 0.17239067
000130 25 85 6b be 4c c8 60 3c a7 1d c3 3d 86 3e a0 3d
       -0.2300001 0.0137196295 0.0952714 0.078244254
000140 77 52 3e be ab cd 22 bd 4a 3a 80 3d cc 2a 84 be
       -0.18586145 -0.03974692 0.06261118 -0.258139
000150 8a e9 45 3e 52 11 4b bc 1b 13 38 3e 88 1a 2a be
       0.1932737 -0.012394266 0.17976038 -0.16611683
000160 aa 96 2e 3e 0e be 0f 3e 20 1f 0e 3c d5 f7 03 3e
       0.17049661 0.14037344 0.008674413 0.12887509
000170 48 50 ae 3b 96 67 29 3e e4 a4 c6 bd 5a f6 0e 3e
       0.005319629 0.16543421 -0.09699419 0.13961163
000180 10 28 48 be e3 89 d1 3d 13 07 28 3e fc 88 1a 3e
       -0.19546533 0.10231378 0.16408949 0.15091318
000190 bd cb 23 be 96 a6 eb bd 20 93 76 3e f6 00 61 3d
       -0.15995689 -0.11506383 0.24079561 0.054932557
0001a0 d5 63 53 3d 51 21 40 3e d5 52 16 3e 30 7d f4 bd
       0.05160888 0.18762709 0.14680035 -0.1193794
0001b0 3d 00 0c 3d cc a3 cd 3d e9 8c 0c be 5c be ca be
       0.034179915 0.100410074 -0.13725628 -0.39598358
0001c0 d9 5b 1e 3d 68 0b e2 3d 95 70 23 3d e3 6c 06 3d
       0.03866181 0.11037332 0.03990229 0.032818686
0001d0 5b 0c 1d 3d eb f3 56 3d ec f1 c4 bd 90 d6 4f 3e
       0.03834186 0.052478712 -0.096164554 0.20296693
0001e0 19 c5 f4 be d9 04 58 be 25 68 4a 3e 41 f8 06 3d
       -0.47806624 -0.21095599 0.1976629 0.032951597
0001f0 2c 78 0c be 28 d2 c7 bd 6d 3f 1b 3d b2 bb 80 be
       -0.13717717 -0.09756881 0.037902284 -0.251432
000200 ba a1 82 bd 2c f4 0c bd 49 7c 6f be 7f fd 24 be
       -0.06378503 -0.034412548 -0.23387255 -0.16112326
000210 aa 31 f0 bd 6a 5d 0b 3e 04 cb 16 3e 30 7e 4d be
       -0.11728223 0.13609853 0.14725882 -0.20067668
000220 73 f4 10 3e d5 cb 99 be 8b c7 8d 3e eb a0 b5 be
       0.1415575 -0.30038324 0.27691302 -0.35474333
000230 e6 a8 7f bd cf 78 59 3e 52 d7 96 3e c2 67 2a bd
       -0.062416933 0.21237491 0.2946115 -0.041602857
000240 dd ee 8b be 44 36 df bd f6 fa cd bd cb 52 37 3e
       -0.27330676 -0.10899022 -0.100576326 0.17902677
000250 e7 0c 93 be b1 5f b5 3d 01 6d e8 3d d8 19 59 3e
       -0.2872078 0.08856142 0.11348916 0.21201265
000260 bc 77 d4 3b b3 8a 8d 3d f8 8c 76 3e 0f 15 a7 bc
       0.006484 0.069112204 0.24077213 -0.020395784
000270 09 3e 43 be 24 ae bf 3e f8 ef 7d 3e 0d c6 73 be
       -0.19066633 0.37437546 0.24798572 -0.23806019
000280 54 7e 94 be de 5b 9f 3e 75 ad ac 3c 75 66 e3 3d
       -0.2900263 0.31124777 0.021078805 0.111035265
000290 4d 61 e5 be 5b 35 0b 3e c1 6b 50 be 61 23 26 3c
       -0.44800797 0.13594572 -0.20353605 0.010140271
0002a0 33 c6 b7 3e 85 3d 44 3e e7 2c c6 3d 2d 86 c0 3d
       0.35893402 0.19164093 0.09676533 0.09400592
0002b0 f1 f2 79 3e d6 82 cf 3d 8a 7a 6f 3d c4 84 81 3d
       0.24409081 0.10132377 0.05846647 0.06324151
0002c0 3b 73 02 3e a8 c0 10 3e 03 53 4a 3e e7 36 53 be
       0.1273927 0.14135993 0.19758229 -0.20626412
0002d0 8d 25 6d be 75 45 ce bd a7 d6 fe 3e 04 57 93 3e
       -0.23158856 -0.100718416 0.49773142 0.28777325
0002e0 81 d9 c7 3d 7c ef 4e be d4 82 1a 3e 45 bc b4 3e
       0.097582825 -0.20208544 0.1508897 0.35299888
0002f0 24 21 ce 3e 08 57 8b 3e 68 2a 22 3e c9 85 1c 3e
       0.4025966 0.27214837 0.15836489 0.1528541
000300 2d dd 99 be 8b 0d 6b be f4 1c 8d bd 15 0d 65 bd
       -0.30051556 -0.22954385 -0.06890288 -0.05592068
000310 1d 1c 37 be 28 b9 52 3e 5a 60 ac 3e d1 0f cd be
       -0.17881818 0.20578444 0.3366726 -0.4005113
000320 3e 1c 78 3e eb b7 dc 3e 1f de 6e 3e 6a 0b 40 3e
       0.24229524 0.43109068 0.2332692 0.18754354
000330 d1 6d 5b be fa 51 09 bd 23 25 86 3b 59 30 15 3e
       -0.2142861 -0.033525445 0.0040937825 0.14569224
000340 fa 08 93 be f7 8d 8b be cd 84 b4 3e f7 21 76 be
       -0.28717786 -0.27256748 0.3525757 -0.24036394
000350 39 b7 1c 3d b2 5e 2b 3e f2 10 c7 3c 3c 73 8a be
       0.038260672 0.16735342 0.024300072 -0.27041042
000360 9e ca a3 3e 58 22 02 3e a0 49 59 3e c6 7e 0a 3e
       0.31990522 0.12708414 0.21219492 0.13524923
000370 06 e2 d3 3e 50 28 a5 3e 91 94 5d 3e 57 3e 7d 3e
       0.4138338 0.32257318 0.21638705 0.24730812
000380 d4 b0 81 be 6d 28 cd 3d 3f 55 bb 3e 15 3f 0d 3e
       -0.25330222 0.10017476 0.36588475 0.13793595
000390 e4 40 aa be c3 87 8c 3d 46 05 a1 3e 71 08 8f 3d
       -0.33252633 0.06861832 0.31449336 0.06984032
0003a0 09 da 0b be 24 75 e6 3d 4b ec c7 3e 44 9e cb be
       -0.13657393 0.112528116 0.39047465 -0.39769185
0003b0 01 9e 8b 3e bc 9b 13 3e fb 98 9d be d8 d0 56 be
       0.27268985 0.14414877 -0.30780777 -0.20978105
0003c0 b1 ab 0a be 0c da 17 3e 5a e8 a3 3e c4 7f a2 3e
       -0.13542058 0.14829272 0.32013208 0.31738102
0003d0 4c 38 a1 3e 29 54 ad 3d 29 62 4f be b6 3a 46 3e
       0.31488264 0.08463318 -0.20252289 0.19358334
0003e0 be 27 06 be 47 09 0a be 65 1b 2a 3d 26 fb 2b 3e
       -0.13101098 -0.13480102 0.04153003 0.16795024
0003f0 ee 58 5b 3e e5 55 8b be 3b e3 2e be 81 9d 1e be
       0.21420643 -0.2721397 -0.17078869 -0.1548977

layers.2.bias f4 [5]
000000 71 c1 40 3d 4a 30 0a 3e 99 57 58 3d 0b ac 89 3d
       0.04705948 0.13494983 0.052817915 0.06722268
000010 91 41 f0 3c
       0.02932814
