RL_2/dqn_base.onnx (onnx, 199999 bytes, 6 tensors)

layers.0.weight f4 [128, 254]
00000000: c7f5 9dbd d4cd d1bd f643 873d bfb6 94bc
00000010: 23aa f2bb 6cf6 b03d 6f26 35bc 18a4 c73e
00000020: 5909 fb3d d83c dabd fbc6 4c3d 4a3f 75bb
00000030: fda7 83bd cb37 8fbe 29aa 1f3d f6a5 8482
00000040: 008b e83d bd71 b53d 6205 073a aa93 4c3d
00000050: 95b1 9b3b 1638 c6bd 4632 a701 fd0f 433e
00000060: 42fa 793d 2276 053e ed83 033e 3945 553c
00000070: f738 5a3e 34cf 0682 7188 0bbc 2431 03bd
00000080: 5ab9 13bd af4e 55bb f409 a73b 5e5e 2f3d
00000090: cfaa 583d 4c8c e93c 85cd 9d3d 1455 073b
000000a0: 0b86 9e3a 36e1 0d3d 3121 83bd fed4 cdbc
000000b0: 52ca 773d f2e0 00bd c2ca 583b 7f58 37bd
000000c0: 80ff 9abd 63a6 9d3c dfd0 8bbc b8e4 c93d
000000d0: 7cd6 4b3d eb34 6cbd 8b59 5abd c3a1 313a
000000e0: 568d 073a ca39 3dbd 58a2 4abd 239b 883b
000000f0: 9cd3 20bd 0aeb 913c d2de 163d abe6 cd3c
00000100: 50ae 3cbd 284f cb3c c8ad 143d 919e c7bc
00000110: 6e4c ed3c fe32 343b 1bbf 44bc 37be dcbd
00000120: 49b9 94bb cf3b b63c 261d d63c a8f3 e1bc
00000130: 815c fdbc c9a0 983b 6243 aabc 4a36 383d
00000140: 3156 323c 8878 e1bc 026f 403d df5e 16bd
00000150: 8540 753c 7ed3 3cbc 2770 68bc fbf9 243c
00000160: a000 853d 35bc 08bd 31e6 ddbb 8c5f d33b
00000170: b18c 1fbd 35dc 95ba 2222 d63b ad26 c1bc
00000180: f7bd 8c3d b816 be3c dc77 d63c 2953 74bd
00000190: b1ce 143c 0cc1 75bd cc5d 6cbd 3101 08bd
000001a0: 7fcb 08bd 57be 68bd 1b25 693d b216 b73c
000001b0: 9385 5dbd 820f 03bc 8021 2c3d eeed ec3c
000001c0: 2a73 973d a870 3ebc 2bad c7bc c250 b3bd
000001d0: 8d22 9bbd cc97 95bc 8031 bc3d 07ee a63c
000001e0: 735f a8bc 8809 81bd bb1e eabc 612f bdbb
000001f0: 592e 73bb 1593 313b f71f a63d 7ade b73c
00000200: 6a1b 0b3d b898 82bd 8d2c 13bd dd88 f5bc
00000210: 0af0 963a 0f9a 543d 955c a23d a182 593d
00000220: b1cc 87bd c5ec 8f3c 9371 4cbc 9196 b6bc
00000230: 2312 d3bc a086 0ebd e818 a4bd 7ffb 84bd
00000240: 76d8 8b3c 30a3 cdbc 07f4 c2bd 3829 c5bc
00000250: 0fc2 313d 8a2b e63c fe0a bdbc 98f6 23b8
00000260: f70c 0abd 6385 b33c c047 353c 8ad0 b8bc
00000270: 28b5 a23c e5e5 84bd aeb5 29bd 4834 a73b
00000280: d508 b4bc 9861 82bd 0d6f 25bd c536 bfbc
00000290: 342a f43c 2685 9fbd 1727 0ebc cfe0 08bd
000002a0: 4730 9d3a 6000 533d bfda 2d3d f5b5 993d
000002b0: 1e0b 303c af0d 433c 1cff 0a3c f89a 0e3d
000002c0: 6005 1b3c 4362 9b3d 7ff1 013d a258 31be
000002d0: 2991 b6bd dab6 cd3b 41a6 98bc 21ec 65bc
000002e0: f135 0f3d f77b e53d 3e75 dc3d 8c38 023e
000002f0: 4923 723d 183f c1bc 031e d2bc e347 9a3c
00000300: 5e44 66bc 7116 92bd f261 a8bd ed5e e2bc
00000310: b8d1 c8bc 2e06 47bc 47ec b73b 7911 723d
00000320: 795f 143e e2b3 363e 8021 153e d8ea 2d3c
00000330: b9f3 a23c 9d09 c3bc d743 ecbb df1f 90bd
00000340: d960 8d3d 0be7 2cbd f8d5 253c 1bfa 3ebd
00000350: 5d03 20bc 6b88 02bd 8646 0e3d d09f 013e
00000360: 5a30 0d3e 1a15 073e f14f 453c adc4 933c
00000370: 2f93 e8bc 3591 aa3c 5a1c 51bd c23b 9fbd
00000380: 720e 01bd ee74 933d 7160 1abd 4328 1fbc
00000390: 1845 353d 6ef6 3e3d 29c0 b13d b3d0 103e
000003a0: 5707 183e 285b bf3d d27a 983b 3f47 6d3d
000003b0: d585 3cbd bc45 993a 0cf9 ae3c 2a54 e6bd
000003c0: 9695 413d aa3b 2bbc dacc a2bc e116 15bd
000003d0: 5c47 953c 96a6 bc3d e544 073e a81b b03d
000003e0: 0506 223b a26c 1abd 3ec4 5a3d 46e7 143c
000003f0: 092d ebbc c820 af3d 7359 953d 3950 8abc
-0.07712894 -0.10244337 0.066047594 -0.018153546 -0.007405536 0.08640751 -0.011056527 0.3899238
0.12257642 -0.10656136 0.04999445 -0.0037421756 -0.064285256 -0.27972254 0.038980637 -1.9490914e-37
0.11354637 0.088595845 0.00051506434 0.04994551 0.004751394 -0.09678666 6.141825e-38 0.19049068
0.06102968 0.13033345 0.12843294 0.013016992 0.21310793 -9.90423e-38 -0.008516417 -0.032029286
-0.036065437 -0.003254812 0.005097622 0.042814605 0.05289727 0.028509282 0.07705215 0.0020650076
0.0012094391 0.034638606 -0.06402815 -0.025125977 0.060495682 -0.031464525 0.0033079837 -0.04476213
-0.07568264 0.019244378 -0.017067371 0.09858078 0.049765095 -0.057667654 -0.05330805 0.00067761185
0.0005170902 -0.04619769 -0.04947123 0.0041688844 -0.039264306 0.01781227 0.03683359 0.025134405
-0.046064675 0.024818018 0.036298543 -0.024367603 0.028967109 0.0027496214 -0.012008454 -0.10778468
-0.0045386893 0.022245316 0.026136946 -0.027582005 -0.030927898 0.004657839 -0.020784084 0.04497365
0.010884807 -0.027523294 0.046980865 -0.03671157 0.014968996 -0.011525033 -0.014186895 0.010069366
0.0649426 -0.033382613 -0.0067718257 0.006450599 -0.038952533 -0.0011433425 0.0065348307 -0.023578012
0.068721704 0.023204193 0.0261802 -0.05964962 0.009082482 -0.059998557 -0.05770664 -0.03320426
-0.033397194 -0.056822147 0.056920152 0.02234969 -0.054082464 -0.007999303 0.042024136 0.028922047
0.07395013 -0.011623539 -0.024374565 -0.08755638 -0.075749494 -0.018260859 0.09189129 0.020377172
-0.020553326 -0.06300646 -0.028579107 -0.0057734703 -0.0037106483 0.0027095724 0.081115656 0.022444952
0.03396169 -0.06376785 -0.03593116 -0.029972488 0.0011515629 0.051904734 0.07927815 0.053103093
-0.06630839 0.017568955 -0.01247825 -0.022288593 -0.025765484 -0.034796357 -0.08012563 -0.064932816
0.01707099 -0.025102228 -0.09519201 -0.024067506 0.04339796 0.028096933 -0.02307653 -3.9091887e-05
-0.03370377 0.02191419 0.01106447 -0.022560377 0.019861773 -0.064891614 -0.04143303 0.005102668
-0.021976868 -0.06366271 -0.04038911 -0.023341546 0.02980528 -0.07789068 -0.008676312 -0.03341752
0.0011992537 0.05151403 0.04244494 0.07505409 0.010744838 0.011905118 0.008483674 0.03481576
0.009461731 0.07587101 0.03172445 -0.17318967 -0.08914406 0.006277901 -0.018633964 -0.014033348
0.034963552 0.11205285 0.1076455 0.12716883 0.05911568 -0.023589656 -0.025649076 0.018833106
-0.014054386 -0.071331866 -0.082218066 -0.027633155 -0.024514064 -0.012147469 0.0056128833 0.059098694
0.14489545 0.17842057 0.1456356 0.010615073 0.019891607 -0.023808295 -0.0072102356 -0.07037329
0.06903238 -0.042212527 0.010121815 -0.046625238 -0.009766427 -0.03186838 0.034735225 0.1265862
0.13787976 0.13191643 0.012042985 0.018038118 -0.028390495 0.020821193 -0.05105243 -0.0777507
-0.031507917 0.07200037 -0.03768963 -0.009714189 0.044255346 0.046621732 0.0867923 0.14142112
0.1484655 0.093435585 0.004653313 0.057929274 -0.04602607 0.0011693756 0.02135899 -0.11246522
0.047261797 -0.010451237 -0.019873071 -0.036398772 0.018222503 0.09211461 0.13209875 0.08599025
0.0024722826 -0.037701257 0.053409807 0.009088343 -0.028707998 0.085511744 0.07292452 -0.016883956

layers.0.bias f4 [128]
00000000: e7af a7bc 006b 5cbd 67f3 fabc ccf5 4cbc
00000010: a74d 4cbd 28c4 9bbc b5be 08b7 ec89 80bc
00000020: 0db4 9cbc 4680 a9bd 047b f5bb 19cc 39bb
00000030: 3d64 d882 e875 0abc 9d69 77bd 3ca0 2582
00000040: 61a6 92bc c3c9 ed3c 8960 4bbd 2b36 90ba
00000050: 40e2 38bd 9903 473c 0d4f 333b a7b7 49bd
00000060: 1be3 7dbc 67a6 36bd 8698 8dbc 6bde 2dbd
00000070: ed63 e83c 28c9 0ebd fcc4 02bd c706 12bd
00000080: 1cc1 eeb9 a138 173d 00d9 94bd b0cc 8f3b
00000090: 0a42 47bd fa5b cdbc 95d6 683d 3af0 63bc
000000a0: 8d2d 91bd 0eae 893d 78eb 25bc b0db 04bc
000000b0: daf8 d8bc c3c6 4dbd 44ae a6b9 7dca abb0
000000c0: 196b 7f3b d22c b2bc fdad 50bd bf45 83bd
000000d0: d2be 0f3d 7f8c 6abd a8f0 403d c175 88bd
000000e0: d885 21bd e8e6 82bd c053 6a3c cbb8 973c
000000f0: 643e afbc 9aef 98b9 e653 8182 b4c7 18bc
00000100: 235e f83a 1a54 7db9 c4d0 72b5 909f 3e3c
00000110: f81d c4bc be34 21bd aa58 a4bd 7d5e 7abd
00000120: c35e 60bd 612f 4cbd cc46 7bbc 43b6 87bd
00000130: b783 86bc a12f efbc bfa2 2e3d a9cb 2c3d
00000140: 5d10 9dbc be14 b03b 2a07 2dbd 59ba 223d
00000150: 08cc beb2 cd0c e0bb c395 3f3d 9283 2bbd
00000160: a7d9 f93a b9a3 14bc 366c 1083 1a82 13bd
00000170: 1339 19bd 7d18 80bd d98d 323d d912 2e3b
00000180: d054 cebb 010b 933d 3456 973c 15dd 19bd
00000190: bb5a abbd 4329 df3b 50ff 5cbd 5992 a9bc
000001a0: e186 aebc b28c 7b3c 4224 debb 47d5 f23c
000001b0: 84ed 2f3d 7614 67bd 8f52 8dbd a4e4 853c
000001c0: e233 96bd 637e 0ebd c164 a6bd fb9a 1183
000001d0: bcce b63c 1d08 b5bc 3b57 6cbb a231 ab82
000001e0: 0b04 99bd 292e 0cbd fa3d 5a3c 6282 4d3d
000001f0: 8d39 87bd f033 34bc 23d5 e4bc 6e5e b8bc
-0.020469619 -0.05381298 -0.030633641 -0.012509774 -0.049878743 -0.019014433 -8.150634e-06 -0.015690766
-0.019128824 -0.08276419 -0.0074914712 -0.0028350411 -3.1795881e-37 -0.008450963 -0.060403455 -1.216827e-37
-0.017901601 0.029026872 -0.04965261 -0.0011002471 -0.045137644 0.012146854 0.002736035 -0.04924741
-0.015496041 -0.044592287 -0.017284643 -0.042448442 0.02836796 -0.034859806 -0.03192614 -0.035650995
-0.00045538775 0.03691924 -0.07267952 0.0043884143 -0.048646964 -0.025068272 0.056845266 -0.013912255
-0.07088766 0.067226514 -0.010126941 -0.008109018 -0.02648585 -0.050238382 -0.00031791825 -1.2499438e-09
0.0038973747 -0.021749888 -0.05094718 -0.064097874 0.03509409 -0.057262894 0.047104508 -0.06663085
-0.039434284 -0.06391698 0.014302194 0.018520733 -0.021392055 -0.00029170216 -1.9003002e-37 -0.009324957
0.0018948953 -0.0002415929 -9.045582e-07 0.011634722 -0.023940071 -0.03935694 -0.08024724 -0.061125267
-0.05477787 -0.04984987 -0.0153367035 -0.066265605 -0.016420228 -0.029197516 0.042635676 0.042186413
-0.019172842 0.0053735664 -0.04224316 0.039728496 -2.2211694e-08 -0.0068374635 0.046773683 -0.041873522
0.0019062058 -0.009072238 -4.2442017e-37 -0.036012746 -0.037407946 -0.06254671 0.043592308 0.0026561527
-0.0062967315 0.07179833 0.018473722 -0.037564356 -0.08366915 0.0068103387 -0.053954422 -0.020699667
-0.02130455 0.015353369 -0.0067792246 0.029642714 0.042951122 -0.056415997 -0.069005124 0.016344376
-0.073341146 -0.0347885 -0.08124686 -4.278958e-37 0.022315376 -0.022098595 -0.0036062736 -2.515468e-37
-0.07471474 -0.03422371 0.01332044 0.05017317 -0.06602774 -0.010998711 -0.027933663 -0.022505965

layers.1.weight f4 [128, 128]
00000000: ff5a a4bc 6028 34bd a756 0ebe f290 b93d
00000010: 59d1 1cbd 5f2e 9a3e 410a b237 baf1 64bc
00000020: f95e a3be b67d babd e731 7b3e a4f4 083b
00000030: 40aa 8182 0a7a 263e e28b acbd b81c af01
00000040: d316 88be e054 55bd 150d 30be 7366 bd3c
00000050: 33dd c6bc bdd5 29bd 0d1b 3a3d 669a cc3d
00000060: 9787 9e3d 87d8 15be f663 353d 7ea0 99be
00000070: e7f9 80bd e60c 82bd 244d 34be d3b7 5ebe
00000080: 6f72 cc3d 0fcc d8bd 57fc 603b 9c74 2c3b
00000090: 7070 7dbe 939f ca3d ddea fbbd 2bd5 0bbe
000000a0: 4243 8a3c 5333 933d fd6a 993c e2b9 a8bd
000000b0: 71c1 92bc a030 643e b6f6 8bbd f1f5 3183
000000c0: aae5 01bd f07d 51be 9615 a5bc d491 ffbd
000000d0: 6618 973d f827 52bc 041c c03c 28b6 083d
000000e0: 366a 0b3e c07c 48be 1654 91bd c608 24be
000000f0: 7641 b33e bb4f 6137 b41f 9002 24ce ed3d
00000100: e832 823b 9c6d ec36 7a17 99af ca3a ff3c
00000110: c03f 00be 5c89 64be 5b71 6b3b 9524 7f3d
00000120: f6f6 f7bc 41f8 bd3b 330d e93c 3df2 543e
00000130: 5e17 023e fea8 ee3c 4632 debd 1785 b4bd
00000140: f265 d63d e464 3d3c 802a dd3c 96e6 083d
00000150: f580 172c 74c8 0ebe 7253 4c3e 4f15 483d
00000160: 7032 8abc ac8e 90be 9ae1 ca82 a269 8c3d
00000170: d00d 143e b09f aebd 5e59 d33d 3043 0fbe
00000180: bfc5 4d3b aa00 e2bd 7b0e a03d 165c 36bd
00000190: dd07 e0bd 81bd 33be f7f0 88bd 8343 20be
000001a0: bebe aa3d b185 8b3e 241c 7ebe 2dc1 cf3d
000001b0: 621c 39bd 3d17 c03c 7b77 bc3c e298 3a3e
000001c0: e8b2 1a3d 6d28 4cbe 72a9 8c3a c0d3 7180
000001d0: be37 d5bd 36cd 49be 5492 043d 4642 8982
000001e0: be06 873c eb54 c4bc 0cb9 173d 2e71 5dbe
000001f0: 1d41 b3bc e0fe 65bb 20a7 a33b cd36 543c
00000200: 7b18 1c3c 74ae 8fbd 6c29 92be 8a11 133e
00000210: 983b 6e3b 8749 863e a5b5 8839 ab38 09be
00000220: 32ce 11be 7470 053d 20a2 9dbd 0df8 8c3a
00000230: 18e0 ac02 1ab8 60be 96a7 04be aa5d c702
00000240: 77db 933c ffb9 35be 85f7 f9bc 6197 21bc
00000250: 859d 283d ea3a 00be e8e9 92bd 7a65 5ebe
00000260: aadd 6abe b176 7e3c e720 10be 5bdb 0abe
00000270: 2268 81bd 7904 7a3e 4cbe 8bbc 3ecb 96bc
00000280: 6baa a7bc 9e6e 0a3c a17a 6a3d c509 003e
00000290: a6bd dfbd 9719 cb3d 26d9 73be 45b2 aebc
000002a0: b426 d9bd 2ecb 1f3c 6dc0 12bf 82f7 aa3d
000002b0: df4f 17bd cf76 aebd e536 78bd cf3b 1583
000002c0: 80ca e03d 86ca 22be dbdc 153d 73d2 a0be
000002d0: d209 2dbc 15c2 b4bc e799 693d 4306 d2bc
000002e0: 5318 a13d 3add 22be 9f81 ab3a df0b c73d
000002f0: 19a9 dbbd 3f91 0639 b030 5002 4a0d 2fbd
00000300: 67fc 9e3c 4c38 03ba 1df3 baa7 5c04 8339
00000310: 16dc 3b3c 36a1 53bd 68fc abbc 077a 413e
00000320: 54b7 873e 9da7 123c 885f c73d f52d 303e
00000330: bb07 e33d 43b5 c43b 1559 04bd 276d 7cbe
00000340: 6aa0 023d 08e4 2c3d 56ac bbbb ab19 d03c
00000350: 971d f0b7 0cc7 463d e43f dcbd 1166 2dbe
00000360: f368 183c 45b7 29be dc35 0903 e78a 62be
00000370: 568e e0bc 704c b23c d8b7 613d 84cb ebbc
00000380: e393 0c3d 89e5 abbc 0fd3 11be b43e ff3d
00000390: c1ed 28bb 0a55 bb3d cdbf 02be d0e2 87bd
000003a0: b0a5 6b3e dc24 dfbd 6c98 5ebe 6639 313e
000003b0: 4498 38bd 9d47 ef3d 4d29 28be 4dfb b8bd
000003c0: d551 dabd 81ba a1bd f0c1 803e 10e6 ac02
000003d0: 9cc3 82ba fc47 67be 2ddf 9fba f12c 6b82
000003e0: f3b5 3ebe ea22 b3bc 127b 7cbd d7a8 75be
000003f0: d266 8bbd e731 fbbc a33a b03c df65 b93d
-0.020062922 -0.043983817 -0.13900243 0.09060849 -0.038285587 0.30113503 2.1224028e-05 -0.013973648
-0.31908396 -0.09106009 0.24530755 0.002089777 -1.9052565e-37 0.16257492 -0.08425118 6.4326057e-38
-0.26579913 -0.052082896 -0.1719249 0.02312014 -0.024275398 -0.041463602 0.045435954 0.09990387
0.077407055 -0.1463338 0.044284783 -0.30005258 -0.06297665 -0.063501164 -0.17607552 -0.21749811
0.09982764 -0.10585796 0.0034330094 0.0026314622 -0.24749923 0.098937176 -0.12300656 -0.13655536
0.016877774 0.07187524 0.018727774 -0.08238579 -0.017914506 0.22284174 -0.06834166 -5.229795e-37
-0.031713165 -0.20458198 -0.020151895 -0.124789864 0.073777005 -0.012826912 0.023450859 0.033376843
0.13614735 -0.19578838 -0.07096116 -0.16018972 0.3501088 1.3429609e-05 2.1177095e-37 0.11611584
0.0039733537 7.0461083e-06 -2.784722e-10 0.031155962 -0.12524319 -0.22318023 0.003592572 0.062290747
-0.030269127 0.0057974164 0.028448677 0.20795532 0.12704226 0.029133316 -0.10849433 -0.088144474
0.10468663 0.011559699 0.026997805 0.03342303 2.1529976e-12 -0.13943654 0.19953707 0.048848446
-0.016869754 -0.2823385 -2.9810721e-37 0.06856085 0.14458394 -0.08526552 0.1031978 -0.13990474
0.0031398383 -0.11035283 0.07815262 -0.044521414 -0.10939 -0.17552759 -0.066865854 -0.15650754
0.083371624 0.27250436 -0.24815422 0.10144267 -0.045193084 0.02344858 0.023006191 0.18222383
0.037768275 -0.19937296 0.0010731651 -1.0453373e-38 -0.104110226 -0.19707188 0.032366112 -2.016838e-37
0.016482707 -0.023966273 0.03704171 -0.21625206 -0.021881634 -0.0035094544 0.004994288 0.012952519
0.009527321 -0.07015696 -0.28547227 0.1436216 0.0036351439 0.26227972 0.00026075277 -0.13400523
-0.14238814 0.032577947 -0.076969385 0.0010755077 2.5401752e-37 -0.21945229 -0.12954554 2.9294183e-37
0.018048985 -0.17746733 -0.030513534 -0.009862752 0.041165847 -0.12522474 -0.0717352 -0.21718398
-0.2293612 0.015531228 -0.14075051 -0.1356024 -0.0631869 0.24415769 -0.017058514 -0.01840746
-0.020467004 0.008449225 0.057245854 0.12503727 -0.109248444 0.0991699 -0.23813304 -0.02132524
-0.10603085 0.009753032 -0.5732487 0.083479896 -0.036941405 -0.08518755 -0.060599227 -4.385582e-37
0.10976124 -0.15897569 0.036587577 -0.3141056 -0.010561423 -0.022065202 0.05703154 -0.025637751
0.078659676 -0.15904704 0.0013084895 0.09719061 -0.10725612 0.00012833344 1.5295399e-37 -0.042737283
0.019407464 -0.00050056423 -5.1888955e-15 0.00024989515 0.011466047 -0.051667415 -0.02099438 0.18894206
0.26507056 0.008951095 0.09735018 0.17205031 0.11085459 0.0060030534 -0.032311518 -0.24651013
0.031891264 0.042209655 -0.005727331 0.025402864 -2.8624008e-05 0.04852967 -0.10754374 -0.16933466
0.009302366 -0.16573818 4.032251e-37 -0.221233 -0.027411621 0.021764964 0.055106968 -0.028783567
0.034320723 -0.020983474 -0.14240669 0.124631315 -0.0025776478 0.09147079 -0.12768479 -0.06635058
0.23012424 -0.10895702 -0.21737832 0.17307052 -0.045067087 0.11683581 -0.16422005 -0.09032307
-0.106601395 -0.07896901 0.25147963 2.5405178e-37 -0.0009976509 -0.22586054 -0.0012197249 -1.7277971e-37
-0.18624096 -0.021867234 -0.061640806 -0.23990189 -0.06806721 -0.030663444 0.021512335 0.090526335

layers.1.bias f4 [128]
00000000: f627 7e3c 8d43 2a3d 1f40 a53d 2fea 36be
00000010: 59d6 d93e fdac 313e 15d9 4a3e 38d3 153e
00000020: 334e b03c 5345 c8bc 74bc b63d 35fa f53d
00000030: 47fc e6bb 8e9d a03d 2419 0a3e f8b9 66bd
00000040: e46c 7e3e c786 10be bf6c f5bc 3b0a 4a3e
00000050: 38bb 4a3e 0281 d33d 74a5 afbd 18c7 263e
00000060: e64b 06bd c346 0abe d8f0 c83d 4e69 1dbd
00000070: cdf1 6a3e 23ff 4d3e 38da 3dbd 6096 7cbd
00000080: 42ee 0e3e ff9d 963d d229 b53d cd03 7b3e
00000090: c0bc 2fbd ba1a 6b3e aae0 8d3d a248 013e
000000a0: b0c7 093e 6930 8e3e 8297 ae3d beb9 113c
000000b0: b702 223d aeba 993e 0a5f 143e 73df 723c
000000c0: 00c8 463d 5018 0abd 842d 2fbb 4000 993e
000000d0: 1e8f 563e a606 163d f5c7 933e 31b4 ba3d
000000e0: 73e4 af3d c76d c63e f161 073d 1565 7a3e
000000f0: 0b76 f93c 398f a63c da29 083e 540b 543e
00000100: 25c2 ebbc f468 ab3e 2c1a 4f3d 625f b53d
00000110: 05df 7b3e 48d8 4b3e 0d31 173e 4fd2 033f
00000120: f3cf 95be 897a 783e d34f 74bc 5006 8c3d
00000130: 582e c43e 136d 083d 61d8 973e ce1f 213e
00000140: be73 0e3e 4a0e c53d b425 953d 389f 013d
00000150: 462a bcbd fceb c83d efd3 483e 7666 8a3e
00000160: 1d32 b53d 1e60 503e 6bbb 8f3e b625 713e
00000170: 9029 fa3d 318d 2e3e a7b3 083d 85de 703e
00000180: 8e27 3abe ed0a f43d fb2f 5f3e a994 813e
00000190: 30d0 58be 1a28 97bd be5e 773e 112d ab3d
000001a0: bc9b a7bd 4128 723e 99ed 6e3e 77b3 1f3e
000001b0: d0c7 c43b 27fb b43d 426a 073e 687f 9b3c
000001c0: 6cb2 323c 21eb 143e a378 26bc db36 7e3e
000001d0: 327f 1f3e 0473 553e 91e9 65bd 7572 693e
000001e0: a7af 193e a589 f83d b9e6 8f3d 4e6d 293e
000001f0: f7d2 0e3e 85fb 22be 42a8 8ebe 61ee fd3d
0.015512457 0.041568328 0.08068871 -0.17862771 0.42546347 0.17351146 0.19809373 0.14631355
0.021521663 -0.024447119 0.08922663 0.12010614 -0.007049117 0.07842551 0.13486153 -0.056329697
0.24846226 -0.14113913 -0.02995908 0.19730465 0.19797981 0.10327341 -0.085764796 0.16286886
-0.032787226 -0.13503556 0.09811562 -0.038430505 0.22943802 0.20116858 -0.046350688 -0.061666846
0.13958076 0.07354354 0.08845867 0.24513169 -0.042904615 0.22959414 0.06927617 0.12625363
0.13455081 0.2777131 0.085249916 0.008894382 0.03955337 0.30025238 0.1448938 0.014823782
0.04853058 -0.033714592 -0.002673001 0.29883003 0.20953032 0.036627434 0.28863493 0.091164
0.08588495 0.38755628 0.03305239 0.24452622 0.030451795 0.020331966 0.13297215 0.20707446
-0.028779099 0.3347851 0.05056207 0.088560835 0.24596794 0.19906723 0.14764805 0.5149278
-0.29260215 0.24265493 -0.01491161 0.068371415 0.38316607 0.033307146 0.29657272 0.15734789
0.1391134 0.09621866 0.07282582 0.031645983 -0.091877505 0.098106354 0.19612096 0.27031296
0.08847449 0.20349166 0.28072676 0.23549542 0.12214959 0.17046048 0.033374455 0.23522384
-0.18179151 0.119161464 0.21795647 0.2530873 -0.21173167 -0.07380696 0.24157235 0.08358205
-0.08184001 0.23648168 0.23332824 0.15595804 0.006005265 0.08836966 0.13224128 0.01898165
0.010906797 0.1454282 -0.010160598 0.24825613 0.15575865 0.20844656 -0.05613095 0.22797568
0.15008412 0.121356286 0.07026429 0.16545603 0.13947664 -0.1591626 -0.27862746 0.12398983

layers.2.weight f4 [5, 128]
00000000: d044 1f3e 4f90 ee3d 93a8 70be e0c5 c9bd
00000010: 3346 38be e6ca c0bd c443 083e d791 843d
00000020: b2f3 18bd eeb1 0abe fe33 b33c 2964 2ebe
00000030: b556 153e e0e0 7f3d 6ec3 4a3e 5027 523e
00000040: a15f 07be 04a7 6b3e dd3b 85bd eddd 96bd
00000050: 725c 1d3d eeb0 2b3e 0386 41bd 4589 2e3e
00000060: c8f9 383d fc8f 393e 8dff 6d3d 735d 863d
00000070: 11e9 86bc a1c7 543e a89c 803e b533 453d
00000080: 126d 8a3d 2f02 56bc 5340 593e 78f0 1a3e
00000090: cba3 9bbe 8a15 9b3d 21b2 0b3b b8f7 14be
000000a0: acb0 533e 21eb 003e 6fb5 363e a76c 313e
000000b0: dba2 c6bd c82c b93d b502 8b3d 2ecf 753e
000000c0: 4429 0b3e 4b44 71bd ae03 853d 05ad 33be
000000d0: fdec 47bd 3225 5dbe d251 b83d 0161 ba3e
000000e0: b946 a13d c0ea 55be 0646 04be 3bdc 4f3e
000000f0: 7163 103e eb8d 28bd 896d 243e 599f 603d
00000100: 36bd babe b518 68be b382 4dbd a42b 193e
00000110: da8c a1bd c3db eb3d bd89 0c3d 3bad 89be
00000120: 3cdf 80be 1e11 253e d5b1 75bd d125 153e
00000130: db81 1fbe 568e 6f3d 6238 1dbe 442b 0d3e
00000140: 09f4 aabd 3cf4 4f3d 71ef ff3d 3e99 71bd
00000150: 64b9 b53d c133 d43d 4a88 133e fdf7 06be
00000160: f3e3 283e 081c 033e 8027 27bc 60a1 0a3e
00000170: 845f a7bc 35db 453e d7b6 66bd fd6b 0b3e
00000180: b78c c3bb b705 043e 3e59 383e 099b 2c3e
00000190: d9f9 c1bc fdb6 d9bd c18a 523e 67c9 193d
000001a0: bd07 943d d498 503d 3a37 5f3e f7de 8abe
000001b0: a0e4 55be 8edf bd3d fe45 10be 1502 39bd
000001c0: 0953 8e3d e8cb 0e3e 86bc db3b 3f7e 8d3d
000001d0: d4b7 c13d 0f2b 533d afe7 e73d 5fdc c03d
000001e0: 1d96 acbd 22a9 7abe 1976 6a3e 569e 1abd
000001f0: e344 f63d d8cb 33be 0c7a 413d dd02 83be
00000200: 4504 87bc afba f4bd 849a bdbd 9725 6bbe
00000210: fb51 3abd 873b f83d 89ec e33d 89eb d73c
00000220: c97f 203e 6b16 d9bd f7cd 693e 3c2c 0cbe
00000230: 3af2 dbba c211 083e 925b 2f3e 2cee 55bd
00000240: c256 8ebe 5011 38be 9c56 0cbd 56da e03d
00000250: dcfe a2be 679f e23d 1779 4e3d 9c9d 683e
00000260: 80ab e13d eb28 9d3d 20f7 633e 4e5f eb3d
00000270: 1efd 77be 5647 b73e 0c70 b43e b77f 2bbe
00000280: f3ee bbbe 9360 a63e bd5d c23e 8309 783e
00000290: 4138 45be a23c 003e 4852 233e 539c 323e
000002a0: 2b1c 7a3e 5b26 833e b1c5 9a3c e352 98ba
000002b0: 10e8 083e 0447 de3d 7561 f03d 7b7f 803e
000002c0: 3509 5a3e bff3 cbbd 7836 df3d 3992 82be
000002d0: bd97 e2bd 9e39 89bd 51ec 943e 8215 cd3e
000002e0: 6087 91bd 2d0a aabe b3c1 4fbc f778 a03e
000002f0: 3efa 9c3e c477 853e d37f 203e 67b7 5f3e
00000300: 04b0 3abe 7009 dabe e509 633e 4d9c 58be
00000310: 1784 47be b66a 5e3e d148 243e a2b7 bdbe
00000320: f8ad 98be 4ffe c03e bc79 1f3d 5100 973e
00000330: c793 05be 09f9 aa3d 6054 2abe 2e83 623e
00000340: cca9 57be d050 a4bd 6e83 963e bfec 5dbd
00000350: d526 0ebe 27cf 3e3e 5e65 383e cfa4 dbbe
00000360: 4230 b83e 4618 6e3e 1e5c 593e 63cd df3d
00000370: e061 de3e 8612 5f3e 668f 3d3e 4f5c 433e
00000380: e586 4bbe 38ac 283e 04a7 c73e 110c f63d
00000390: 9d01 97be a454 8c3c d44d 663e 7e5d 273e
000003a0: e4f6 33bd a1c0 433e 7e57 7b3e 7e6d 3abe
000003b0: e5ef 07be fb8e 253e bc84 aebd e0cd 8c3e
000003c0: 3deb 21be 983b c23d 0976 153e 2374 843e
000003d0: 1b54 7b3e 0a37 393d bd5c 213e 63c1 463e
000003e0: e391 443e 2e95 7ebd e3ba 0b3e 1195 ac3d
000003f0: 80ac bc3e 6a4e 56be 63da 58be 8fab 8bba
0.15553594 0.116486184 -0.23501806 -0.09852195 -0.17995529 -0.094137 0.133071 0.06473129
-0.03734178 -0.13544437 0.021875378 -0.17030396 0.14583857 0.062470317 0.19801113 0.20522809
-0.13220073 0.2301293 -0.06505559 -0.07366548 0.03841824 0.16766712 -0.047246944 0.17044552
0.045160085 0.18121332 0.05810504 0.06560793 -0.016468557 0.20779277 0.2511952 0.048145015
0.06759085 -0.013062044 0.21215944 0.15130794 -0.30398402 0.075724676 0.002131589 -0.14547622
0.20672864 0.12589695 0.17842649 0.17326604 -0.09699031 0.090417445 0.06787626 0.24004814
0.1358996 -0.05890302 0.064948425 -0.1754647 -0.048809994 -0.2159622 0.08999981 0.36402133
0.078748174 -0.20890331 -0.12917337 0.20298855 0.14100434 -0.04115097 0.1605741 0.054839466
-0.3647248 -0.22665675 -0.050173473 0.14958054 -0.078881934 0.115165256 0.034311045 -0.26889977
-0.25170314 0.16119811 -0.059984047 0.14565207 -0.1557688 0.05848535 -0.1535354 0.13786036
-0.08347327 0.05077003 0.12496842 -0.058984034 0.08873251 0.10361434 0.14407459 -0.13180538
0.16493206 0.12803662 -0.010202289 0.13538122 -0.020431288 0.19321902 -0.056326713 0.13615413
-0.0059677023 0.12892805 0.18002793 0.16856016 -0.023678707 -0.10630605 0.20560743 0.037545588
0.072280385 0.050927 0.21798411 -0.27123234 -0.20887995 0.09271155 -0.140892 -0.045168
0.069494314 0.13944972 0.0067058234 0.06908845 0.094588906 0.051554736 0.11323487 0.094170325
-0.08427069 -0.24478582 0.22896613 -0.037748657 0.12024858 -0.17558229 0.047235534 -0.25588122
-0.016481528 -0.119496696 -0.09257987 -0.22963558 -0.04548834 0.12120729 0.111291 0.02635743
0.15673746 -0.10599979 0.22832476 -0.13688749 -0.0016780563 0.13288024 0.17124775 -0.05222909
-0.27800566 -0.17975354 -0.034262285 0.10979144 -0.31835067 0.1106556 0.05040845 0.22716373
0.11019039 0.0767382 0.2226224 0.11492787 -0.2421765 0.35796613 0.35241735 -0.16747938
-0.3670574 0.32495555 0.37962142 0.24222378 -0.1925974 0.1252313 0.15949357 0.17442445
0.24424808 0.256152 0.018893095 -0.0011621382 0.13369775 0.10853389 0.117373385 0.2509726
0.21292575 -0.099586 0.10899061 -0.25502184 -0.11064098 -0.06700443 0.29086545 0.40055472
-0.07105899 -0.33210889 -0.012680459 0.3134229 0.3065967 0.26067936 0.15673761 0.21847306
-0.18231207 -0.42585325 0.22171743 -0.21153374 -0.19483982 0.21720394 0.16043402 -0.37054163
-0.29820228 0.37694022 0.038934454 0.2949243 -0.13044654 0.08348281 -0.16633749 0.22120354
-0.21060866 -0.08023226 0.29397148 -0.054180857 -0.13882 0.1863371 0.18007419 -0.42899176
0.35974318 0.23251447 0.21226546 0.10927846 0.43434048 0.2178441 0.18511733 0.19078182
-0.19875677 0.16471946 0.3899461 0.1201402 -0.29493418 0.017130204 0.22490627 0.16344258
-0.043936625 0.19116451 0.24545094 -0.1820583 -0.13275106 0.16167824 -0.08521411 0.2750082
-0.15812393 0.09484023 0.14595808 0.25869855 0.24543802 0.045218505 0.15758033 0.19409709
0.19196276 -0.062153988 0.1364551 0.0842687 0.36850357 -0.2092835 -0.21177058 -0.0010655987

layers.2.bias f4 [5]
00000000: b8f8 3abb e1eb ee3d 0038 873c c1db 6e3c
00000010: 4d53 043d
-0.0028529596 0.11666084 0.016506195 0.014578761 0.032306004
