RL_2/dqn_break.onnx (onnx, 199999 bytes, 6 tensors)

layers.0.weight f4 [128, 254]
0.14178105 -0.1379215 -0.29305184 -0.057513196 -0.34934548 -0.23091623 0.3106095 -0.15034215
0.029135618 0.006883223 -8.601404e-38 -0.33251974 0.17549022 0.040319975 -0.056915823 -0.12600431
0.14691114 -6.875599e-38 -0.44884345 0.18114877 0.17224407 -0.00013246227 -0.14893271 0.024081627
4.3987168e-38 -0.39902094 0.062069546 0.11494192 -0.16665013 -0.32634625 0.0061888997 -0.048651643
-0.078683235 -0.025196245 0.01839895 0.016849218 0.029881634 -0.047254805 -0.007192579 -0.07107208
-0.025976367 0.07171362 -0.0590117 -0.0062617143 0.11338645 -0.006552219 0.013754071 -0.11912571
-0.09029813 0.058396593 0.055376243 0.13275 0.06600986 -0.07900772 -0.056727745 -0.051648986
0.02886062 -0.009039937 -0.059118252 0.019987836 -0.031531975 0.018379997 0.08322875 -0.08042764
-0.012730398 0.060999718 0.14306639 0.028087659 -0.02473228 -0.017816368 -0.012373278 -0.12022469
0.037192296 0.045451842 0.046945333 -0.019729687 -0.03127693 0.013069843 -0.0034746393 -0.03486176
0.086176425 0.012818944 0.024193551 0.013676958 -0.054366693 -0.029581424 0.028373454 0.031103801
0.1237007 -0.081545204 0.014235211 0.07062098 -0.009643257 0.02194377 0.0667535 -0.07132659
0.065946534 0.069451325 -0.028273873 0.0152053805 0.02132023 -0.06402707 -0.049009938 -0.013176355
-0.072803184 -0.04145172 0.03923261 0.03017373 -0.07959686 0.059640676 0.02670457 0.04164127
0.03078662 -0.071740225 -0.018657776 -0.09302432 -0.058887772 -0.021510094 0.14558682 0.0019251397
0.011247096 -0.07610203 -0.038548052 -0.054570954 0.033863466 0.073660225 -0.04115636 -0.010970617
-0.049496856 -0.07084997 -0.0026319628 -0.023227336 0.037795756 0.09921861 0.092865504 0.0717444
-0.108056 0.038128745 -0.038120665 0.056094375 0.015657295 -0.06633995 -0.006480696 -0.035367846
0.014578394 0.06185247 -0.09971642 -0.0065074195 0.05904574 0.08537344 -0.004937094 0.042169426
-0.042740125 0.11475247 -0.14810736 -0.31784183 -0.25445485 0.05780537 0.003165901 0.009205735
-0.0027941605 -0.08215451 -0.054308027 -0.03231349 0.08464993 -0.06984612 0.020071758 -0.004236989
0.0484179 -0.056483723 -0.30330032 -0.048812885 -0.010501612 0.008459603 0.045997847 0.11485574
-0.05279621 0.13075712 0.032302406 -0.20102851 -0.0325704 -0.0019574363 -0.043850724 0.011960419
-0.08435571 -0.20239969 -0.0769653 0.059126407 0.04424149 0.07819269 0.013550991 0.020696381
0.02324565 -0.09772067 -0.056325193 0.018863073 0.062773906 0.006365845 -0.0171819 -0.025928281
0.00067160296 -0.07556724 0.05217309 0.018467199 0.0485638 -0.01028155 0.002307597 -0.04390735
0.09565519 -0.016184557 0.09751192 0.0013739733 0.11734439 0.053186342 0.057579294 -0.047489967
0.0003842643 0.009153789 -0.057511564 0.033574652 -0.051013768 0.028159998 -0.018745167 -0.11402035
-0.03212011 0.14812508 0.00612509 0.10868336 0.07581458 -0.010498394 -0.0606234 0.0036093006
0.00854521 0.070182405 0.0058393735 0.031820256 -0.098727465 0.05919492 0.00269228 -0.15224461
0.19275564 0.030895978 0.064728 -0.017698403 0.013363835 0.013759041 -0.039283343 0.07581772
0.060607787 0.08449703 0.14303894 0.025872905 -0.03575609 0.075971514 -0.08309178 -0.0013101822
00000000: 0d2f 113e 4b3b 0dbe e40a 96be f592 6bbd
00000010: 69dd b2be 4e75 6cbe 3508 9f3e 4bf3 19be
00000020: d2ad ee3c a98c e13b 0a27 ea81 0740 aabe
00000030: b5b3 333e 8f26 253d 9120 69bd 4607 01be
00000040: e06f 163e ef2b bb81 cfce e5be 107f 393e
00000050: c060 303e 92e5 0ab9 d181 18be d546 c53c
00000060: 2a7d 6f01 794c ccbe a33c 7e3d ab66 eb3d
00000070: 55a6 2abe db16 a7be 41cc ca3b f246 47bd
00000080: ad24 a1bd 5b68 cebc 65b9 963c 5f07 8a3c
00000090: 54ca f43c 418e 41bd baaf ebbb 3d8e 91bd
000000a0: 64cc d4bc 97de 923d 41b6 71bd 112f cdbb
000000b0: 2837 e83d ffb3 d6bb c158 613c 2ef8 f3bd
000000c0: 3aee b8bd 4431 6f3d 33d2 623d 9eef 073e
000000d0: 2d30 873d cdce a1bd 5a5b 68bd e38d 53bd
000000e0: 1b6d ec3c 3e1c 14bc fb25 72bd 88bd a33c
000000f0: ac27 01bd a691 963c d673 aa3d 3fb7 a4bd
00000100: 2993 50bc d7da 793d ff7f 123e 1718 e63c
00000110: 5a9b cabc a2f3 91bc 4ab9 4abc 5d38 f6bd
00000120: f356 183d b62b 3a3d c049 403d 27a0 a1bc
00000130: 3d1c 00bd e522 563c c6b6 63bb 34cb 0ebd
00000140: 447d b03d 8c06 523c 8e31 c63c 5215 603c
00000150: 9caf 5ebd be54 f2bc 726f e83c 66cd fe3c
00000160: cb56 fd3d 2c01 a7bd cd3a 693c bba1 903d
00000170: c0fe 1dbc 6cc3 b33c 0fb6 883d ad13 92bd
00000180: fa0e 873d 7f3c 8e3d 9c9e e7bc fd1f 793c
00000190: c3a7 ae3c a020 83bd a5be 48bd a3e1 57bc
000001a0: d619 95bd 47c9 29bd 60b2 203d e62e f73c
000001b0: ae03 a3bd c849 743d 8bc3 da3c 0990 2a3d
000001c0: 3934 fc3c 8aec 92bd 31d8 98bc 8983 bebd
000001d0: 4e34 71bd f035 b0bc b614 153e f854 fc3a
000001e0: bd45 383c 62db 9bbd 90e4 1dbd cb85 5fbd
000001f0: 6bb4 0a3d 2cdb 963d 9293 28bd 1abe 33bc
00000200: 37bd 4abd ca19 91bd 027d 2cbb 4147 bebc
00000210: b9cf 1a3d 2033 cb3d 4530 be3d baee 923d
00000220: 774c ddbd e32c 1c3d 6a24 1cbd 37c3 653d
00000230: ba43 803c 3ddd 87bd 055c d4bb e0dd 10bd
00000240: 37da 6e3c 0459 7d3d 1f38 ccbd 313c d5bb
00000250: f2d9 713d 45d8 ae3d 59c7 a1bb d9b9 2c3d
00000260: 4510 2fbd 5803 eb3d 75a9 17be 2abc a2be
00000270: e847 82be 53c5 6c3d 017b 4f3b a7d3 163c
00000280: 3c1e 37bb a040 a8bd 1872 5ebd 265b 04bd
00000290: f15c ad3d 7c0b 8fbd 876d a43c 71d6 8abb
000002a0: d951 463d 7a5b 67bd 2e4a 9bbe 05f0 47bd
000002b0: f40e 2cbc 269a 0a3c 3d68 3c3d 7c39 eb3d
000002c0: d740 58bd 32e5 053e 874f 043d 6bda 4dbe
000002d0: 8a68 05bd 5548 00bb d19c 33bd a2f5 433c
000002e0: b0c2 acbd dd41 4fbe fc9f 9dbd 882e 723d
000002f0: 9136 353d 7d23 a03d fa04 5e3c 758b a93c
00000300: a96d be3c c621 c8bd 3fb5 66bd bb86 9a3c
00000310: 9b8f 803d 9498 d03b 0ec1 8cbc 8c67 d4bc
00000320: 830e 303a ffc2 9abd 73b3 553d 8648 973c
00000330: d6ea 463d f273 28bc 0e3b 173b 32d8 33bd
00000340: dee6 c33d 7a95 84bc 54b4 c73d e516 b43a
00000350: 4152 f03d ecd9 593d 44d8 6b3d d784 42bd
00000360: 1577 c939 c6f9 153c 3f91 6bbd 9385 093d
00000370: d0f3 50bd ccaf e63c 778f 99bc 8083 e9bd
00000380: 6090 03bd 1aae 173e fbb4 c83b 6295 de3d
00000390: ad44 9b3d 7501 2cbc 3e50 78bd 048a 6c3b
000003a0: 3501 0c3c cbbb 8f3d 3758 bf3b f555 023d
000003b0: a031 cabd 5f76 723d f770 303b 03e6 1bbe
000003c0: bc61 453e 9019 fd3c 1d90 843d 3efc 90bc
000003d0: fdf3 5a3c 9a6d 613c 92e7 20bd 5246 9b3d
000003e0: df3f 783d c70c ad3d cd78 123e 6af3 d33c
000003f0: fa74 12bd f496 9b3d 062c aabd 6bba abba

layers.0.bias f4 [128]
-0.014536449 -0.059876304 -0.07017152 0.03198576 -0.06309545 0.010953952 -0.027629962 -0.040858526
-0.03594739 -0.012880817 -0.023395164 -0.04123225 -0.024924004 -0.00556832 -0.0730103 -2.4839757e-37
0.07061873 -1.5840392e-16 -0.032020986 -5.1460115e-31 -0.0076849214 -0.021266598 -2.1557831e-37 -0.040486433
0.0037349802 -0.096191265 -0.07993765 -0.021956751 0.023894027 -0.008699714 -0.035869833 -0.059423275
-0.035228394 -0.03482108 -0.06496078 0.0109971855 -0.06754136 -0.06173311 0.03299262 -0.088424504
-0.061280813 -0.0036054258 -0.055695012 -0.083794445 -0.07183465 -0.023509646 0.018167121 -0.026611103
-0.056118395 -0.06289593 0.009193693 -0.039508402 0.0035766584 -0.046751525 0.001975776 -0.09042451
-0.059385553 -0.08744591 0.007190124 -0.0011740491 -0.030708423 0.014425195 -6.0990002e-37 -0.013993929
-2.3716972e-37 -0.09913502 0.036010146 0.0018419663 -0.024577135 -0.030513095 -0.02844972 -0.06707886
-0.0862665 -0.041952606 -0.047928397 -0.05918646 -0.06692437 -0.03083973 -0.011129971 0.03213653
-3.5990891e-37 0.054722354 0.017165683 0.010036907 0.015352644 -0.026195994 0.0373494 -0.026778193
-0.030443328 -0.027535042 -0.02304329 -0.05927667 -2.2395608e-37 -0.092706375 0.039840177 0.0009993756
-0.011329519 0.0520254 -0.0025426766 -0.058678813 -0.03601709 0.057085328 -0.042564783 -0.0272776
-0.033310816 0.008189897 -1.265556e-37 0.020507962 0.05070771 -0.06394396 -0.060299028 -0.0043766885
-0.06851686 -0.032772858 -0.077326305 -0.015304436 0.03877444 -0.04653042 -4.173491e-37 -1.5848687e-37
-0.09759556 -3.557488e-37 0.013610371 0.0033000177 -0.06522531 -0.0035687608 -2.1434947e-37 -0.052716196
00000000: 492a 6ebc db40 75bd 16b6 8fbd 8003 033d
00000010: 3038 81bd 3478 333c 3b58 e2bc 455b 27bd
00000020: 923d 13bd 100a 53bc 37a7 bfbc 26e3 28bd
00000030: 6d2d ccbc 7476 b6bb 6d86 95bd f60c a982
00000040: 8da0 903d 96a0 36a5 7028 03bd 64ff 268d
00000050: cbd1 fbbb 4a37 aebc 0ab7 9282 1ad5 25bd
00000060: 92c6 743b edff c4bd 5ab6 a3bd a5de b3bc
00000070: 68bd c33c 3f89 0ebc 3fec 12bd d265 73bd
00000080: a64b 10bd 8ca0 0ebd 280a 85bd 8a2d 343c
00000090: 2053 8abd dcdb 7cbd 4523 073d e817 b5bd
000000a0: 9701 7bbd 0249 6cbb 7420 64bd 6c9c abbd
000000b0: 0c1e 93bd 4d97 c0bc 37d3 943c 87ff d9bc
000000c0: 67dc 65bd 95cf 80bd 25a1 163c 90d3 21bd
000000d0: 5f66 6a3b 877e 3fbd 057c 013b 7c30 b9bd
000000e0: 443e 73bd d716 b3bd 229b eb3b 8de2 99ba
000000f0: 3b90 fbbc a757 6c3c c989 4f83 cb46 65bc
00000100: cb68 a182 4d07 cbbd 607f 133d 226e f13a
00000110: fd55 c9bc 99f6 f9bc 630f e9bc a460 89bd
00000120: 7eac b0bd 7fd6 2bbd 9150 44bd 806d 72bd
00000130: a50f 89bd 9aa3 fcbc 7b5a 36bc 98a1 033d
00000140: faf0 f482 8c24 603d 0c9f 8c3c d771 243c
00000150: a889 7b3c fb98 d6bc affb 183d f15d dbbc
00000160: 4964 f9bc 2b91 e1bc 48c5 bcbc 18cc 72bd
00000170: a76a 9882 d7dc bdbd 742f 233d 7bfd 823a
00000180: 729f 39bc 9618 553d 09a3 26bb 3259 70bd
00000190: a886 13bd 4ed2 693d 6958 2ebd 4675 dfbc
000001a0: ec70 08bd eb2e 063c 3142 2c82 5000 a83c
000001b0: e3b2 4f3d 0df5 82bd 1dfc 76bd 536a 8fbb
000001c0: 9152 8cbd d53c 06bd 415d 9ebd 75bf 7abc
000001d0: f2d1 1e3d af96 3ebd 3c04 0e83 9db8 5782
000001e0: 2ee0 c7bd 2f1c f282 09fe 5e3c 1c45 583b
000001f0: d994 85bd dfe1 69bb f2e0 9182 f0ec 57bd

layers.1.weight f4 [128, 128]
0.13865055 0.005388247 -0.21679176 0.09859339 0.03434969 0.43849537 -0.09322576 -0.23405766
-0.33564845 -0.10471193 0.07369108 -0.070259444 -0.1896373 -0.09023022 -0.036856223 -2.4470519e-37
-0.15275936 -5.5196317e-37 -0.26579675 -5.582771e-37 0.025813896 -0.19284223 -2.6921419e-37 0.0979874
0.16574457 -0.11603356 0.16199565 -0.16183567 0.024829669 -0.125089 -0.007089642 -0.17251243
-0.017996665 -0.112159535 0.053781405 0.033333782 -0.24253802 -0.017162431 -0.068420835 -0.18707001
0.11352382 0.17775491 0.09506982 0.047774583 -0.047152553 0.34467524 0.16920497 -0.01425238
0.08352604 -0.10519082 -0.03378457 0.013501743 0.35336414 0.10340458 -0.23467338 0.124285005
0.04254746 -0.045290273 -0.14410216 -0.15581259 0.12621664 0.068389975 -4.284357e-35 0.06987465
-1.66335e-37 -0.121956035 0.017921507 -0.013444074 0.0038882026 -0.1422084 -0.031684734 0.101755865
-0.033837862 -0.14273001 -0.032055836 0.1807977 0.04604618 -0.08084601 0.043262158 -0.034232598
3.4039838e-37 0.02307264 0.122743554 -0.12050675 -0.4531997 -0.014851297 0.20694894 0.07648716
-0.23931204 -0.5114537 -0.19922867 -0.029928084 3.420693e-38 -0.21268065 0.07343592 -0.027920408
-0.14757575 -0.05856538 -0.1471205 -0.026714703 -0.27080587 -0.21413705 -0.042007018 -0.032909192
0.10177534 0.026710952 1.1758078e-37 0.028916 -0.087306835 0.05552202 0.08242565 0.20215417
0.15476593 -0.10929935 -0.15129983 -0.0097728735 -0.03171732 -0.40059975 3.8981307e-37 1.189727e-37
-0.03212211 3.9398235e-37 -0.095385276 -0.07621555 -0.15593812 -0.1949131 -1.749376e-37 0.12089523
-0.06408854 -0.102862366 -0.071568154 0.07378 -0.10454237 0.21474688 -0.08693876 -0.20586751
-0.06348591 -0.08470184 -0.09558492 0.14073479 -0.6530217 -0.17771235 -0.046503697 2.5075223e-37
-0.14346434 9.678315e-28 -0.16523346 4.502253e-37 -0.022840196 0.03361564 -1.7185431e-37 -0.08802035
-0.1966551 0.04665961 -0.16024491 0.11972955 0.05505612 -0.016271196 -0.12379537 -0.15079407
-0.042017013 0.1951456 0.045075327 0.3182483 -0.1517777 0.30956003 0.007409905 0.0298582
-0.046512682 0.014770119 -0.20448725 0.06336446 -0.20403267 -0.20157936 -0.12941754 0.02333239
0.09479925 -0.09050923 0.020036032 -0.1453312 -0.025755815 -0.08327205 -0.10910887 -0.051376265
-0.023673715 -0.10131865 0.028440787 -0.086628325 -0.1037723 0.086670555 5.9913173e-37 0.07966269
-2.1138025e-37 0.03674091 0.0035997108 0.06954305 -0.13508576 0.00091917865 -0.0013028625 0.20606346
0.20102897 -0.14623696 0.056547143 0.19882753 0.17088893 -0.09074005 0.010798985 0.016656114
-3.4224565e-37 0.11113213 -0.11051346 -0.20034021 -0.16907221 0.05810719 0.14285396 -0.20700713
-0.15895584 -0.11608487 -0.0034929689 -0.31544122 2.0929884e-37 -0.009376877 -0.051270615 0.00046878704
-0.14620607 0.045918792 -0.022389758 0.122508906 0.14427948 0.02752487 -0.3830371 -0.087806255
0.15940134 -0.06424277 -8.597873e-38 0.2878022 -0.14069934 0.17648336 -0.21867786 -0.16129482
-0.36574483 -0.038600683 0.19542938 -0.108219765 -0.058761835 -0.1783781 -1.9284156e-37 1.3530679e-37
-0.33138505 3.5215182e-37 0.092864044 0.18115549 0.035835188 0.0051036314 2.3847391e-37 0.11109483
00000000: 69fa 0d3e e48f b03b a9fe 5dbe 55eb c93d
00000010: 43b2 0c3d 7782 e03e 26ed bebd d0ac 6fbe
00000020: 1dda abbe 3573 d6bd 59eb 963d 2fe4 8fbd
00000030: 4830 42be 9fca b8bd 8df6 16bd a889 a682
00000040: f36c 1cbe c6d2 3b83 8316 88be cbf8 3d83
00000050: aa77 d33c 6f78 45be ba37 b782 9ead c83d
00000060: f2b8 293e 01a3 edbd 30e2 253e 40b8 25be
00000070: 9767 cb3c 5517 00be 3a50 e8bb 19a7 30be
00000080: be6d 93bc e6b3 e5bd e449 5c3d 0189 083d
00000090: e35b 78be 3a98 8cbc 3920 8cbd 488f 3fbe
000000a0: 2d7f e83d 6205 363e f7b3 c23d 48af 433d
000000b0: 0923 41bd 4679 b03e 1144 2d3e d082 69bc
000000c0: b30f ab3d 496e d7bd b061 0abd 6a36 5d3c
000000d0: 25ec b43e c8c5 d33d 384e 70be 2389 fe3d
000000e0: 3f46 2e3d 4b82 39bd 848f 13be 568d 1fbe
000000f0: ef3e 013e 0b10 8c3d a5cb 6386 711a 8f3d
00000100: 4a67 6282 16c4 f9bd 20d0 923c 8944 5cbc
00000110: 37d1 7e3b 149f 11be dac7 01bd 6165 d03d
00000120: 9299 0abd d127 12be fb4c 03bd 0823 393e
00000130: eb9a 3c3d 9892 a5bd a933 313d 7b37 0cbd
00000140: c3a9 e702 d502 bd3c f960 fb3d 3ecc f6bd
00000150: cb09 e8be db52 73bc 6cea 533e 4da5 9c3d
00000160: 370e 75be a1ee 02bf 9a02 4cbe be2b f5bc
00000170: 803d 3a01 f5c8 59be 9265 963d 57b9 e4bc
00000180: 191e 17be 40e2 6fbd c2a6 16be cbd8 dabc
00000190: 11a7 8abe be46 5bbe 8d0f 2cbd cacb 06bd
000001a0: 976f d03d edd0 da3c ec0a 2002 3fe1 ec3c
000001b0: edcd b2bd 0f6b 633d c7ce a83d 8101 4f3e
000001c0: f67a 1e3e 56d8 dfbd 58ee 1abe 671e 20bc
000001d0: 05ea 01bd 691b cdbe 82a5 0403 efef 2102
000001e0: 7992 03bd b410 0603 5b59 c3bd e616 9cbd
000001f0: 3eae 1fbe 4d97 47be db1c 6e82 eb97 f73d
00000200: da40 83bd 81a9 d2bd 5392 92bd f819 973d
00000210: 4f1a d6bd 9be6 5b3e f30c b2bd efce 52be
00000220: e704 82bd 2978 adbd 07c2 c3bd c81c 103e
00000230: 6e2c 27bf 3afa 35be a97a 3ebd 33a7 aa02
00000240: 51e8 12be e95b 9912 f632 29be 2834 1903
00000250: 5d1b bbbc 8eb0 093d 7dea 6982 0344 b4bd
00000260: f45f 49be 261e 3f3d 3e17 24be c434 f53d
00000270: 8782 613d 2c4b 85bc 6d88 fdbd c369 1abe
00000280: 081a 2cbd 40d4 473e e8a0 383d 71f1 a23e
00000290: 9d6b 1bbe a77e 9e3e cace f23b 2f99 f43c
000002a0: 1584 3ebd 5ffe 713c 1b65 51be 3ac5 813d
000002b0: f1ed 50be d26a 4ebe 0886 04be 9123 bf3c
000002c0: 1c26 c23d e75c b9bd 9b22 a43c b4d1 14be
000002d0: dcfd d2bc 898a aabd 7974 dfbd eb6f 52bd
000002e0: 61ef c1bc 2780 cfbd a7fc e83c 316a b1bd
000002f0: 9286 d4bd 5580 b13d bcdf 4b03 3126 a33d
00000300: a2db 8f82 a37d 163d 20e9 6b3b 966c 8e3d
00000310: ec53 0abe 09f5 703a d0c4 aaba 4d02 533e
00000320: 8ada 4d3e 24bf 15be fa9d 673d 7299 4b3e
00000330: 82fd 2e3e ebd5 b9bd 3aee 303c 6772 883c
00000340: 9aeb e882 3e99 e33d e254 e2bd fc25 4dbe
00000350: 4421 2dbe ce01 6e3d 4f48 123e adf9 53be
00000360: 52c5 22be e8bd edbd 4bea 64bb 8381 a1be
00000370: 0071 8e02 79a1 19bc 2301 52bd 88c7 f539
00000380: 0bb7 15be 5815 3c3d ba6a b7bc f3e5 fa3d
00000390: 00be 133e d67b e13c 701d c4be c4d3 b3bd
000003a0: 1b3a 233e b791 83bd 6e0e ea81 cf5a 933e
000003b0: 7d13 10be 0eb8 343e 17ed 5fbe 782a 25be
000003c0: e842 bbbe c01b 1ebd a41e 483e 53a2 ddbd
000003d0: 40b0 70bd c0a8 36be bd3d 8382 892b 3802
000003e0: 4dab a9be 80a9 ef02 812f be3d d380 393e
000003f0: ebc7 123d 5d3c a73b 044c a202 b085 e33d

layers.1.bias f4 [128]
-0.05037186 -0.0058263997 0.13116665 -0.24322404 0.2212416 0.14796951 0.2061616 0.11509943
0.0050904388 0.031596825 0.23319381 0.36256024 0.03529234 0.09877353 -0.10780965 0.051567383
0.2103692 0.012346014 0.0981414 0.009267207 0.024489729 0.05336792 -0.015202499 0.1549981
0.08014724 -0.19220638 0.18918993 -0.095845714 0.4023961 0.26712087 -0.046503495 -0.07130709
0.5091344 -0.029715871 0.04377888 0.18837272 0.18136244 0.36655915 0.16534036 0.081549734
0.050913513 0.2899702 0.18984205 0.15905097 0.05763504 0.20253274 0.22712082 0.14196073
0.19709651 0.041513886 -0.07077535 0.2757022 0.42289928 -0.25375256 0.17569348 0.027913457
0.019108633 0.22784153 0.35654673 0.22034013 -0.017174223 0.041649472 0.14527029 0.25260073
-0.13948932 -0.24000044 -0.0132557 -0.14581612 0.2413963 0.10563823 0.15309687 0.54793715
0.09928557 0.2699155 0.1737165 0.14572947 0.44664177 -0.061798852 -0.15523055 0.119912006
0.022201767 0.13108172 0.118704036 0.14681055 0.010732275 0.10940164 0.067954555 0.34767607
0.0827921 0.2116893 0.25793132 0.2921375 0.12998928 0.12544437 0.06844739 0.28945553
-0.093094185 0.19477212 0.19212005 0.21932425 0.12551004 -0.09556736 0.1142123 0.1374775
-0.12690379 0.18640508 0.16157867 -0.07946103 0.034631122 0.14923784 0.056438863 -0.041527856
-0.16215786 0.21406728 -0.1192733 0.26224875 0.12967591 0.28183964 -0.08230516 0.22413382
-0.016262058 -0.028670477 0.04496798 0.14288004 0.1847321 0.09517335 -0.26780894 -0.100700535
00000000: b952 4ebd 62eb bebb 8d50 063e b90f 79be
00000010: 288d 623e 5285 173e 071c 533e 40b9 eb3d
00000020: b2cd a63b ac6b 013d 5cca 6e3e 7fa1 b93e
00000030: b38e 103d c749 ca3d 4ecb dcbd 5238 533d
00000040: 066b 573e f046 4a3c 5cfe c83d 7cd5 173c
00000050: af9e c83c 5298 5a3d e713 79bc d2b7 1e3e
00000060: 3c24 a43d c0d1 44be 01bb 413e c24a c4bd
00000070: dd06 ce3e 11c4 883e 737a 3ebd 7409 92bd
00000080: a256 023f b36e f3bc 7c51 333d c7e4 403e
00000090: 13b7 393e a4ad bb3e fc4e 293e 8c03 a73d
000000a0: b08a 503d f976 943e f465 423e 42de 223e
000000b0: b812 6c3d be64 4f3e 5c92 683e 275e 113e
000000c0: abd3 493e 770a 2a3d abf2 90bd d728 8d3e
000000d0: 4186 d83e dbeb 81be fee8 333e c3aa e43c
000000e0: b589 9c3c 4a4f 693e 4b8d b63e d8a0 613e
000000f0: f5b0 8cbc a398 2a3d bcc1 143e e254 813e
00000100: 4ad6 0ebe adc2 75be 6f2e 59bc d250 15be
00000110: 9730 773e db58 d83d 6dc5 1c3e 9c45 0c3f
00000120: 3c56 cb3d 5d32 8a3e bde2 313e 1b3a 153e
00000130: 3bae e43e cb20 7dbd c2f4 1ebe 6d94 f53d
00000140: 7be0 b53c 493a 063e 1a1b f33d 8155 163e
00000150: 6dd6 2f3c f80d e03d c22b 8b3d 9902 b23e
00000160: e88e a93d 14c5 583e 930f 843e 0c93 953e
00000170: e91b 053e 7d74 003e 252e 8c3d 8433 943e
00000180: 2aa8 bebd 5872 473e 1ebb 443e 8996 603e
00000190: b485 003e d2b8 c3bd 23e8 e93d e7c6 0c3e
000001a0: 11f3 01be f9e0 3e3e e174 253e 77bc a2bd
000001b0: 5dd9 0d3d ced1 183e 702c 673d 1d19 2abd
000001c0: b60c 26be 7434 5b3e 8f45 f4bd 7845 863e
000001d0: c3c9 043e 494d 903e 9c8f a8bd 5683 653e
000001e0: 0238 85bc 59de eabc 5830 383d 254f 123e
000001f0: 692a 3d3e 3fea c23d 411e 89be 153c cebd

layers.2.weight f4 [5, 128]
0.18614419 0.15712233 -0.07726769 -0.108604856 0.041664734 0.03469094 0.13021713 0.2032698
-0.14237694 -0.24049197 0.14094818 -0.33279473 0.23262164 0.107040755 0.23737563 0.2186157
-0.163565 0.2571486 0.19616224 -0.013808438 0.2668399 0.21911336 -0.14245169 0.21406117
-0.008197013 0.07465969 0.1262582 -0.105995685 -0.051006116 0.3004697 0.23191522 0.032613024
-0.19885132 0.06029797 -0.040305655 0.093333945 -0.5792452 0.13069557 0.123843886 0.21724465
0.13392536 0.107702315 0.14328797 0.16052233 -0.0698716 0.0944901 0.17336899 0.19108678
0.2580506 -0.2303054 -0.02255917 -0.027097454 -0.15242538 -0.22883286 0.080414556 0.10097954
0.17287801 -0.17716809 -0.41228676 0.29877436 0.1500041 -0.04362882 0.20131725 0.11321887
-0.22167926 -0.12579863 0.09325649 0.07144953 -0.078033015 0.1651261 0.25910357 -0.33823976
0.1470653 0.2765817 0.32156646 0.22611952 -0.32109055 0.15065688 0.16885404 0.16832842
-0.07447751 0.0863445 0.07477266 -0.094665445 0.20609793 0.11754974 0.13353649 -0.26831892
0.03501889 0.17930597 0.054743487 0.13054125 -0.11679688 0.14822134 0.08324307 0.18107268
-0.05074541 0.11279656 0.09617369 0.23640627 -0.12729591 -0.08866257 0.14626513 0.09627349
0.053683586 0.07582726 0.22663856 -0.31504092 0.07691896 0.13379225 0.25029397 0.041075386
0.0540173 0.24266127 -0.013315503 0.071202554 0.13522393 0.06633018 0.17381085 0.086892225
-0.11400877 -0.12845694 0.17541224 0.106657445 0.042881023 -0.11110107 0.013318496 -0.25128633
0.08966513 -0.09836046 -0.15087527 -0.47436324 0.045276906 0.2556004 0.09126071 0.34216306
0.14768377 -0.2894055 0.34573045 -0.33503565 0.07324898 0.17083566 0.24654335 0.20329294
-0.21634921 0.19516082 0.34491652 0.23388703 -0.025377605 0.17065328 0.067800485 0.18295132
0.26273674 -0.195571 0.16472778 0.18135996 -0.37189266 0.2710315 0.17137612 -0.25261334
-0.47746688 0.389401 0.24898292 0.17135619 -0.18876217 0.34573424 0.3457439 0.25168017
0.34127653 0.22269855 0.0596814 0.161459 0.18983859 0.12344478 0.03635257 0.2911708
0.10606947 -0.12561879 0.0064787082 -0.38739228 -0.18416966 -0.124468915 0.21326712 0.036115672
0.13523568 -0.25980493 -0.20350367 0.3147627 0.32779908 0.28281456 0.18456665 0.36010194
-0.24184135 -0.3009875 0.43246233 -0.18853682 -0.363001 0.23852259 0.34073052 -0.57501245
0.19354378 0.37112063 0.122988835 0.36162668 -0.26482943 0.11542446 0.17277174 0.24197616
-0.23364964 0.06283846 0.41061243 -0.16364343 -0.07921961 0.23875968 0.05985446 -0.35212225
0.32995382 0.110128276 0.16028558 0.13057232 0.34353444 0.24373543 0.21225524 0.18848588
-0.40298536 0.09129675 0.40014908 0.28191 -0.39764145 0.24716648 0.40650102 0.18406683
-0.047965474 0.17670394 0.42702878 0.116622746 0.29794237 0.022566793 0.19294156 0.3134071
-0.048823494 0.2732742 0.2348575 0.23493932 0.34441462 0.1059999 -0.022131687 0.14476223
0.34779754 0.14559622 0.024790766 0.21712469 0.23697384 -0.25589022 -0.2439242 0.098822676
00000000: 959c 3e3e ade4 203e 863e 9ebd 396c debd
00000010: a4a8 2a3d 1618 0e3d a457 053e f525 503e
00000020: 43cb 11be 8743 76be b854 103e 1264 aabe
00000030: 5e34 6e3e 2f38 db3d 9912 733e cbdc 5f3e
00000040: 957d 27be fba8 833e c1de 483e c93c 62bc
00000050: 3d9f 883e 415f 603e dbde 11be da32 5b3e
00000060: c44c 06bc 2ee7 983d d449 013e 4414 d9bd
00000070: caeb 50bd 2ad7 993e 2f7b 6d3e 3c95 053d
00000080: ae9f 4bbe 01fb 763d 8b17 25bd de25 bf3d
00000090: 6a49 14bf 0fd5 053e dda1 fd3d 6275 5e3e
000000a0: bb23 093e 0893 dc3d 15ba 123e f75f 243e
000000b0: d718 8fbd 0784 c13d a487 313e 41ac 433e
000000c0: 351f 843e 2ed5 6bbe 02ce b8bc 7bfb ddbc
000000d0: 6615 1cbe 2953 6abe 63b0 a43d 5cce ce3d
000000e0: ef06 313e 8d6b 35be 4017 d3be f4f8 983e
000000f0: ad9a 193e 22b4 32bd 1c26 4e3e 4bdf e73d
00000100: e3ff 62be 5bd1 00be 42fd be3d 2254 923d
00000110: c6cf 9fbd d116 293e 39a9 843e c32d adbe
00000120: 4998 163e 1e9c 8d3e 5ca4 a43e e08b 673e
00000130: fb65 a4be cc45 1a3e 13e8 2c3e 495e 2c3e
00000140: aa87 98bd 63d5 b03d 6922 993d f5df c1bd
00000150: 560b 533e ebbd f03d cabd 083e 1961 89be
00000160: f86f 0f3d fc9b 373e b53a 603d 9bac 053e
00000170: 3433 efbd 56c7 173e 587b aa3d 1e6b 393e
00000180: 6bda 4fbd e201 e73d b6f6 c43d 7c14 723e
00000190: dc59 02be b994 b5bd 87c6 153e 092b c53d
000001a0: 52e3 5b3d 534b 9b3d f013 683e 0b4d a1be
000001b0: b087 9d3d d600 093e 8826 803e aa3e 283d
000001c0: 3f41 5d3d 327c 783e 4429 5abc a5d2 913d
000001d0: 2478 0a3e 1ed8 873d 79fb 313e 8df4 b13d
000001e0: 6e7d e9bd 378a 03be 449f 333e 386f da3d
000001f0: 03a4 2f3d f588 e3bd d235 5a3c 9aa8 80be
00000200: 5aa2 b73d 3571 c9bd 0c7f 1abe bddf f2be
00000210: 4774 393d 0ede 823e e5e6 ba3d ff2f af3e
00000220: 6a3a 173e f52c 94be 9503 b13e cb89 abbe
00000230: 9003 963d 8bef 2e3e dc75 7c3e 062c 503e
00000240: a68a 5dbe 3dd8 473e e698 b03e 1580 6f3e
00000250: b2e4 cfbc bcbf 2e3e fbda 8a3d 9757 3b3e
00000260: 6e85 863e c443 48be 66ae 283e 6db6 393e
00000270: b768 bebe a4c4 8a3e 397d 2f3e 8956 81be
00000280: 8a76 f4be 915f c73e 61f5 7e3e ff77 2f3e
00000290: df4a 41be 1404 b13e 5805 b13e 39dc 803e
000002a0: ccbb ae3e 170b 643e 7c74 743d 8255 253e
000002b0: 0c65 423e 9ed0 fc3d 6fe6 143d 5714 953e
000002c0: f33a d93d 36a2 00be 584b d43b 4858 c6be
000002d0: f996 3cbe 8fe9 febd b262 5a3e 07ee 133d
000002e0: 397b 0a3e 2705 85be 4463 50be 9428 a13e
000002f0: 48d5 a73e 12cd 903e 0aff 3c3e 485f b83e
00000300: 42a5 77be 091b 9abe b46b dd3e cc0f 41be
00000310: 44db b9be 443f 743e 3b74 ae3e 0434 13bf
00000320: 5730 463e 8603 be3e 92e1 fb3d 2227 b93e
00000330: b997 87be a963 ec3d 13eb 303e 99c8 773e
00000340: da41 6fbe 73b1 803d cb3b d23e 2592 27be
00000350: e43d a2bd 6b7d 743e f329 753d 5e49 b4be
00000360: b5ef a83e ef8a e13d e721 243e c0b4 053e
00000370: bfe3 af3e c895 793e 7059 593e 7102 413e
00000380: 1954 cebe caf9 ba3d 57e0 cc3e 8256 903e
00000390: a997 cbbe 3619 7d3e e720 d03e 047c 3c3e
000003a0: 7277 44bd e1f1 343e 84a3 da3e e8d7 ee3d
000003b0: e78b 983e ffdd b83c 7992 453e e576 a03e
000003c0: 25fb 47bd 99ea 8b3e 7c7e 703e ef93 703e
000003d0: 1d57 b03e 7a16 d93d 834d b5bc 8d3c 143e
000003e0: 8512 b23e 2d17 153e 0116 cb3c ef55 5e3e
000003f0: 45a9 723e 0b04 83be 44c7 79be 8b63 ca3d

layers.2.bias f4 [5]
0.07467353 0.14303888 0.010164794 0.06295456 0.021149684
00000000: 70ee 983d c978 123e 3c8a 263c 52ee 803d
00000010: 1a42 ad3c
